results_maml/mnist_5way_1shot_q15_inner1-lr0.4_2nd_mf32_d4/best.pt (torch, 117141 bytes, 10 tensors)

features.0.block.0.weight f4 [32, 1, 3, 3]
00000000: 4c74 513e dbdc 5c3e 92e9 2bbe 43fd 3f3e
00000010: 3b00 28be bb72 643b 4767 62be 38d8 063e
00000020: 7e93 9f3e d261 e1be 9d38 843e 884d b33d
00000030: 8b17 263e 4680 5a3c 75c0 303e fd04 aabd
00000040: d024 613e 5ef9 913d 4a0e 10be a7f8 6bbc
00000050: 2d3f abbe 9699 07be 5ad7 8abe 4740 ef3d
00000060: b629 bebe 53db 42be 1184 01bc 0363 66be
00000070: 9245 74bd bc57 0fbf 870b ad3e 165d 5dbe
00000080: 29bb a43e 0322 be3d f1cc 93bb 8186 a03e
00000090: aff1 d0bc a86b 833e 1035 a7bc f958 ccbd
000000a0: 4958 ed3d cb48 f1bd ef23 e33d 9fa0 963e
000000b0: 9c12 3a3e cee8 ef3c a00d b93e 59a8 3b3e
000000c0: 637a f83d 7158 9bbe 0bf8 2ebf 9520 d6be
000000d0: fa1e acbe b05d e93e c47d e03d 9e59 3a3e
000000e0: 49bf 683e 8838 033c 3efe 743e d33d 93be
000000f0: 8850 e3bc 0376 afbe f182 a2bd 135e a4bc
00000100: db87 b03d 7ccb 81be 4b06 bc3e 2b23 0cbe
00000110: af75 9ebe 4432 04be 2b9d cd3e e388 433e
00000120: 0543 f03e 9cfd b1be 3846 0dbf adb3 17bd
00000130: 0817 13be 5f32 413e fe13 8a3e ab6a d23e
00000140: d4f9 61bd 5d41 68be 3cca 5f3e c43e 17bd
00000150: 98f4 173e 369c 9fbc e212 ac3e 8b44 dcbe
00000160: 6268 3bbe cdd9 683e cc73 233e bdde 2abd
00000170: 589a 073e 4d0f ae3e ffe2 53be 916a a4be
00000180: 289b ce3e 5c53 09be 877e 80be 1d3a c2be
00000190: abe4 32be bf5f 883d 6f20 15be 47ee a8be
000001a0: adf2 34be dc2b 98be 9b89 b9be b39d c5be
000001b0: 439f acbe ec7f b5bd c5d8 fd3e ba90 31be
000001c0: eb53 3abe c938 bfbe 0a1e a4be fa93 94be
000001d0: 8acc ebbd c18e 99be 9b85 3dbe 3be2 99be
000001e0: 88b9 4bbd 42b0 44be 15d0 0fbe 6122 90be
000001f0: d211 96be 1190 a5be 96e6 93be 6d82 98be
00000200: ca85 b53e 2c78 69be 4072 963e bae6 413e
00000210: 2128 7cbe 7ffd 933e 2377 49bd 09fc 02be
00000220: 00dc b4be c3f1 ecbe 51ba 80bd ed88 53be
00000230: b6b1 f0bc 41c0 cdbe 0937 4f3e a78f a7be
00000240: 5245 88bd 18d7 233e 2446 923e c76e 9c3e
00000250: 62d4 ba3e 6295 aabe 263d b63d 4ff0 8dbe
00000260: 3dcf 9cbe 070b 9dbe dfa6 933e bb68 abbe
00000270: e7d2 e83d 02bc e73d fe64 9b3d af46 62be
00000280: 0e0e 913e 641f 0e3e 2175 93bd e92e d1be
00000290: 173e 8b3e 1a30 08bc 92bf babd 5228 d33e
000002a0: 14c1 1b3e cfd2 2abe f9c4 2ebe b60e 393d
000002b0: bc2d 8a3e b032 eabd 8e92 6abd c97a 7c3d
000002c0: 20c8 94be f098 5b3e cd5d ba3e 5b96 01bf
000002d0: c0ec 953d 886c 0b3e 843f 063e 5692 57be
000002e0: 6724 b73d 4d86 793e 16bd 23bc 2f7f 54be
000002f0: 39f2 d0bd c66c 2c3d 1c85 00be e83b 89be
00000300: 81b7 693e 8342 9d3e 9c60 70bc 6bee c1bd
00000310: 8cf7 ff3c 40fe b43c 20c3 193e 53ba 1e3e
00000320: add1 f5bd 2b1e 16be f214 b33e 309e a73e
00000330: c768 69be 1571 c5be 02ea 7ebe f10d 81be
00000340: 894b 99be 527e 8dbd ff01 9a3e a4a9 fe3d
00000350: 21f5 bdbe 3d9b 0abe 0f04 093c cfbe cb3e
00000360: 43b8 163e 1d07 013e 24b1 b23e 1e16 1abe
00000370: e907 dcbd ffa1 d03e 8646 b1be 8764 c0be
00000380: f35f 0bbf 48b4 333e b43d 483e 2dc1 3a3d
00000390: f99c 9ebe dabd e6be 903a d7be c871 843e
000003a0: fab8 453e 1fba 953e 6d18 bd3e ffa3 b43e
000003b0: 334e 4c3e 2373 9ebe d0f8 51be b82a c8be
000003c0: bee9 88bc 2d87 80be b598 a9bd 4a90 62be
000003d0: 5145 1ebe 0dcf b2be 85db 7ebe 6023 b3bc
000003e0: e8af 68be 5f04 613e 31b1 2ebe 3292 c9be
000003f0: c35b b6bd 0663 dbbe 9a62 55be a5f3 62be
0.2045452 0.21568625 -0.16788319 0.18748955 -0.16406338 0.0034858424 -0.2210971 0.13168418
0.31167215 -0.44019943 0.25824443 0.08755022 0.16219918 0.013336247 0.17260917 -0.08301733
0.21986699 0.07127641 -0.14067951 -0.014402545 -0.33446637 -0.13242182 -0.27117425 0.11682182
-0.37141198 -0.19028978 -0.007905022 -0.22498707 -0.05963666 -0.5599325 0.33797857 -0.2161754
0.32174042 0.09283831 -0.004510515 0.31352618 -0.025505869 0.25668073 -0.020411044 -0.09977908
0.11589105 -0.11781462 0.11090838 0.2941942 0.18171161 0.029285815 0.36143208 0.18325938
0.121327184 -0.30340913 -0.68347234 -0.41821733 -0.33617383 0.4557929 0.10961488 0.18198249
0.2272922 0.008009084 0.2392511 -0.28758106 -0.027748361 -0.34269723 -0.07935131 -0.02006439
0.086196624 -0.2535056 0.3672355 -0.1368529 -0.3094916 -0.129098 0.40158972 0.19095187
0.46926132 -0.347638 -0.5518527 -0.037036587 -0.14364254 0.18866871 0.26968378 0.41097006
-0.055169895 -0.22681184 0.2185449 -0.036925092 0.14839399 -0.019483667 0.33608156 -0.43021044
-0.18301538 0.22739334 0.15962142 -0.041716326 0.13242471 0.3399605 -0.20692061 -0.32112554
0.4035275 -0.13410705 -0.25096533 -0.37934962 -0.17470042 0.06658887 -0.14563154 -0.3299429
-0.17670698 -0.29720962 -0.36237797 -0.38596877 -0.33715257 -0.0886229 0.49579445 -0.17340365
-0.18196075 -0.3734801 -0.32054168 -0.29019147 -0.11513622 -0.29991725 -0.18507998 -0.30055413
-0.049737483 -0.19207862 -0.14044221 -0.2815123 -0.2931047 -0.32336476 -0.2888686 -0.29787007
0.35453635 -0.22799748 0.2938404 0.18935671 -0.24624683 0.2890434 -0.049185883 -0.12791456
-0.35324097 -0.462782 -0.06285537 -0.20657702 -0.029381614 -0.4018574 0.20235838 -0.32726786
-0.06653847 0.1600002 0.28569138 0.30553266 0.3649016 -0.33317095 0.08898382 -0.27722403
-0.3062686 -0.30672476 0.2883825 -0.3347834 0.113683514 0.113151565 0.07587622 -0.22097276
0.28331035 0.13879162 -0.07200075 -0.40856102 0.27195808 -0.00831225 -0.091185704 0.412417
0.15210372 -0.1668198 -0.17067327 0.045180045 0.26988018 -0.11435449 -0.05726867 0.061640535
-0.29058933 0.2144506 0.3639969 -0.5062005 0.07320547 0.1361562 0.13110167 -0.21051916
0.0894249 0.24367638 -0.009993812 -0.20751642 -0.1020245 0.042095922 -0.12550777 -0.26803517
0.22823907 0.30714807 -0.014671471 -0.09469303 0.03124597 0.022093892 0.1501584 0.15500765
-0.12002883 -0.14659946 0.34976918 0.32737875 -0.22793876 -0.38562837 -0.24893954 -0.2520595
-0.2994044 -0.06908859 0.30079648 0.124347 -0.3710108 -0.13535781 0.008362784 0.39794013
0.14718728 0.1260037 0.34900773 -0.150475 -0.10743696 0.40748593 -0.34624118 -0.37576696
-0.5444328 0.1754924 0.19554788 0.045594383 -0.30979136 -0.4506672 -0.42036867 0.25868058
0.19308844 0.29243562 0.36932698 0.3528137 0.19951706 -0.30947217 -0.2050507 -0.39095092
-0.01671302 -0.2510313 -0.0828108 -0.22125354 -0.1545613 -0.34923592 -0.24888428 -0.021867454
-0.22723353 0.21974324 -0.1705978 -0.3936935 -0.08904221 -0.42848986 -0.20838395 -0.22163256

features.0.block.0.bias f4 [32]
00000000: 2a8e 383e 3552 09be 0a41 243d e030 8fbd
00000010: 24f9 c4be af68 5bbe d60e 293d 4546 f0bd
00000020: 3e69 0abe 0343 84bc 56b9 98bd f9dd 0fbd
00000030: 58bc b43c 4246 43bc 496e 9fbd a748 99bd
00000040: 9e25 5dbe 8490 483d bd79 45bd d545 863c
00000050: d829 aabd d80e aaba dd98 693e 6355 e83b
00000060: 72a6 3fbe d004 a63c cd81 a23e e65c 0c3e
00000070: b1cf d03d 1b98 133e 3e9e 47be 15c8 bd3d
0.18022981 -0.13410266 0.04010109 -0.06991744 -0.3847133 -0.21426652 0.041273914 -0.11732153
-0.13516709 -0.016145235 -0.07457225 -0.0351238 0.022062466 -0.011918606 -0.07784707 -0.074845605
-0.21596381 0.048965946 -0.0482118 0.01639072 -0.08308762 -0.0012974394 0.22812219 0.007090257
-0.18715838 0.020265967 0.31739655 0.13707313 0.10195864 0.14413492 -0.19493958 0.09266678

features.1.block.0.weight f4 [32, 32, 3, 3]
00000000: 3c87 f7bc 1ae9 043d f348 6a3d dcea 083c
00000010: 79cc 15bd 9fec 21bd 07b9 cdbd 8094 fdbd
00000020: a5d6 fcbd 17ec 00bc 2a14 8b3d 3688 713d
00000030: dd44 bfbd a13c e5bc 2580 353b d5a8 b8bd
00000040: a259 e4bd 0776 d3bc 2112 b1bd 9cf7 0bbe
00000050: 658b 3fbe da26 7a3d 92e8 313c 8329 913a
00000060: 9620 0c3c d4e4 a63c a761 e43d d232 19bd
00000070: f736 c7bc ad54 be3c 12a5 afbd c7d5 48bd
00000080: 2552 6ebd 3711 5a3e 2781 0d3e c491 023e
00000090: 06b1 383d 6e01 233d 6959 ba3a b2fc 183d
000000a0: ed5e 4cbd 7f77 ccbd f16f 9ebd e18b 90bd
000000b0: 1bff c6bc 71b7 19bd 1164 c53c 693a eabc
000000c0: 18f1 08bd 7333 d13d e4a1 813e 14d1 803d
000000d0: 6ad4 213e 037c be3d 7548 98bd 98ec 81bd
000000e0: fd4d 913c 1bf4 963c aa79 c23d 1de9 823d
000000f0: 99ba c1bd d7fd 86bd 5b51 27bd be0b 303d
00000100: 70be 253d 65ff 18bd 59af 76bc d3f0 0bbe
00000110: a413 5cbd 5055 fb3d 6983 823d be30 43bd
00000120: c5a2 4abc b334 153d fbb2 2ebd 92b8 81bc
00000130: 5922 d5bd 2232 cdbd 0e85 ea3d e230 28bc
00000140: b52c 663c ae19 073e b483 ae3d 6760 993a
00000150: 287e 683d 22d0 773c 341f 01be 0fb9 1e3c
00000160: 2116 d9bd 9938 11be b4e0 943c c982 0c3d
00000170: aa4f 673d 080a 3ebc f5fc 0abd e6e8 f9bc
00000180: dffd 90bd dc7c 2ebd 8d91 36be c778 fbbd
00000190: 03d0 2fbe f3a1 61be d435 6f3d 5d34 003e
000001a0: bd41 b73d 8ae8 a03d 8eb6 383d 354c e1bc
000001b0: dc33 aebd 3587 0cbe 1145 ffbd fded 083e
000001c0: 8f0e fa3d 1130 f63d 3e13 703d 214b f13d
000001d0: 1f16 3cbd 935c d8bd e2da 44be b332 3ebe
000001e0: 82c8 783d 769a a53d d6ce 2b3d 0e0a d53d
000001f0: e8f0 d33d 6273 a43c d184 34bc 456c d23d
00000200: dcd4 023e 1e4a 56bd 55d2 073d 5685 04be
00000210: b2ea 09be e4b2 d6bd 8eff f9bc 0ba2 adbd
00000220: 7974 38be e9c5 16be 2dae b13d dfa8 3bbc
00000230: 5bc7 223d 3fef 993d 5bd3 813d 03b5 8c3c
00000240: 8671 883c c234 c5bc 9409 de3b 408d 15be
00000250: 8bb7 843c 02e8 233e fafa b1bd 1836 ed3b
00000260: 214f a8bc 6baa 123b 0138 8b3c 5efa 153d
00000270: c995 6bbd b753 84bd b8fa d7bd 4791 803d
00000280: ac56 cfbb 0ab5 71bd f2ab a23d 0c48 913d
00000290: 308a a93c 7805 c63d 883a e53d 3756 0bbe
000002a0: 1b15 8f3a eae0 bdbd 9b22 50be 858d c93c
000002b0: 59b4 403a e2ff 99bd d2b5 4b3d 45c0 f33c
000002c0: 353a 8b3d b6ec b73d a3b6 1cbd 510a debc
000002d0: b209 b6bc 0c56 05bd d223 ad3c 80d7 4c3d
000002e0: 4141 d43d 894b 4e3d f218 f6bd d91a 06be
000002f0: e496 0cbe 4529 dabb a666 0d3d 8a2b 81bd
00000300: 4165 f13c 9163 43bc a0be 1ebd 4d98 733b
00000310: ec7c debb 54be 00be 0245 263d 3dfe 3bbd
00000320: 105c 9abd 665e d03d f5c6 d13d 4fbd e83d
00000330: 3434 ae3d 78ae c4bb 014b 9f3c b62e a13b
00000340: 6f3f 323b 61cb 0fbd 474f a73d 3748 b0bc
00000350: ba47 38bd 817b 683e 6428 1c3e b163 133d
00000360: 6ad2 6bbc 61ce 13bd 186c 58bd 7ae1 3c3e
00000370: ae45 cd3d bca9 8b3d 16ff e23c 3dfb 9e3b
00000380: ff1e eebd dc10 54bd 4ba6 c53c 0e96 98bc
00000390: 9a63 1f3e 9652 693d 7165 b53d 8168 773c
000003a0: 8b68 d93c 66b7 4b3d 8170 fbbd 4ae8 44be
000003b0: 546a c4bd 2e5f d43d 9024 f83d abe2 4f3e
000003c0: 687f 293d 3eac e03d 337a b93d 2513 18be
000003d0: 5e66 4bbe c6ea 41be 9369 183d e944 093c
000003e0: f406 91bb e806 d03c 1721 903c 6599 723b
000003f0: 06e7 babd 3d8b bf3c f4db 123d f5be 95bd
-0.030215852 0.032448865 0.057198476 0.008356776 -0.036571953 -0.0395323 -0.10045057 -0.1238184
-0.12345628 -0.007868788 0.06790955 0.05896779 -0.093393065 -0.027983012 0.0027694788 -0.09016577
-0.111499086 -0.025813116 -0.08646036 -0.13668674 -0.18705519 0.061072208 0.010858672 0.0011074994
0.008552691 0.020372786 0.11151438 -0.03740198 -0.024318201 0.023233736 -0.085764065 -0.049032
-0.058183808 0.2129563 0.13818799 0.12750918 0.045090698 0.039796285 0.001421732 0.037350364
-0.049895216 -0.099837296 -0.07736195 -0.0705793 -0.024291566 -0.03752846 0.024095567 -0.028592305
-0.03343305 0.10214891 0.25318825 0.062898785 0.15803686 0.09300997 -0.07435695 -0.06343955
0.017737383 0.018426945 0.09495862 0.06392119 -0.09459419 -0.06591385 -0.04084907 0.04297995
0.04046482 -0.03735294 -0.015056455 -0.13666086 -0.05372967 0.122721314 0.06372721 -0.047653906
-0.012367909 0.03642721 -0.042651158 -0.01583508 -0.10406942 -0.10019328 0.114511594 -0.010265561
0.014048745 0.1319339 0.08521214 0.0011701704 0.056760937 0.015125306 -0.1260956 0.009687676
-0.10599924 -0.14181747 0.018173553 0.034304414 0.056472458 -0.011599071 -0.033932645 -0.030506562
-0.07079672 -0.042599544 -0.1782896 -0.12278896 -0.17169194 -0.22034435 0.058400944 0.12519975
0.089480855 0.07856853 0.045095973 -0.027502159 -0.08505985 -0.13723452 -0.12464345 0.13372035
0.12209808 0.12020887 0.0586121 0.11781908 -0.045919534 -0.10564532 -0.19224122 -0.18574028
0.060738094 0.08086102 0.0419453 0.104023084 0.103486836 0.02007455 -0.011017994 0.10274557
0.12776512 -0.052316777 0.033159573 -0.12941489 -0.13468435 -0.104833394 -0.030517366 -0.08478173
-0.18013181 -0.14723934 0.086757995 -0.011453836 0.0397409 0.07516336 0.06339141 0.017176157
0.016655695 -0.024073008 0.006776044 -0.14604664 0.016200801 0.16006473 -0.08690448 0.0072391145
-0.020545544 0.002237941 0.016994478 0.036615722 -0.057515893 -0.0646128 -0.10545868 0.062777095
-0.0063274708 -0.059010543 0.07942952 0.0709382 0.020695776 0.09669012 0.111928046 -0.13607107
0.0010916324 -0.092714146 -0.20325701 0.024603615 0.00073510926 -0.07519509 0.049733944 0.029754767
0.067982115 0.08980696 -0.038260113 -0.027104529 -0.02222142 -0.032552764 0.021135245 0.050010204
0.10364009 0.050365005 -0.12016477 -0.13096179 -0.13729435 -0.0066577517 0.03452172 -0.063071325
0.029467227 -0.011925594 -0.038756013 0.0037169636 -0.006789794 -0.12572604 0.040593155 -0.045896757
-0.07537091 0.10174255 0.10243026 0.11364233 0.08506051 -0.0060022436 0.019444944 0.0049188985
0.0027198454 -0.035106067 0.08169418 -0.02151881 -0.04499028 0.22703363 0.15249783 0.035983745
-0.014393428 -0.03608549 -0.05283746 0.18445387 0.10023056 0.06819484 0.027709525 0.0048517273
-0.11627006 -0.05177389 0.024127146 -0.01862624 0.15565339 0.056963526 0.08857239 0.015100599
0.026539108 0.04973545 -0.12277318 -0.19229236 -0.09590593 0.103697166 0.12116349 0.2030131
0.04138127 0.109703526 0.09056511 -0.14851053 -0.19863269 -0.18937215 0.03721006 0.008378246
-0.0044258777 0.025393918 0.017593903 0.00370177 -0.091260955 0.023381824 0.035854295 -0.07311813

features.1.block.0.bias f4 [32]
00000000: bfec 9f3d 2c59 593c 73c3 f9bc 8bc3 603d
00000010: 8945 c93c 64fb 07bd 63f4 353b 9649 7abd
00000020: ad59 ceba 03cb 39bd 4fbb 0b3d 6de5 3a3d
00000030: b49a 67bd a897 193d cfe6 b93b 9de2 c7bc
00000040: 287f cdbc e82d 823d 6d41 d33c 2638 173d
00000050: 473a c33c 753a ba3b 5430 583d f240 063d
00000060: 9dcf 34bd 5267 d6bc d7c8 863d 5dd6 583b
00000070: 07da 17bd c985 5b3d d193 bfbc 386f f2bc
0.078088276 0.013265889 -0.030488705 0.054873984 0.02456929 -0.03319873 0.0027764074 -0.061105333
-0.0015743278 -0.045359623 0.03411418 0.045628954 -0.05654402 0.037498146 0.0056732665 -0.02440005
-0.025085047 0.06356412 0.025788033 0.03691878 0.0238315 0.005683238 0.052780464 0.03277678
-0.044143308 -0.026172314 0.06581276 0.0033086755 -0.03707316 0.053594384 -0.023385914 -0.029594049

features.2.block.0.weight f4 [32, 32, 3, 3]
00000000: c8b3 3d3d 6b2d 7b3d 5472 823b c6c1 2ebe
00000010: 5c16 e1bd c688 71bd 11ef 1dbd 8f53 7bbc
00000020: b215 56be 0492 c13c fe86 783b 09ba 8f3c
00000030: 22de adbd 83b2 ebbd fa7f 31bd a43d a9bc
00000040: 8b1b eabd 87a2 3abe eb0b e0bd d404 33be
00000050: 87df 79be 18f8 1e3b 6750 95bd 165e 863d
00000060: c9b0 f7bd 554b 32bd 3643 983d 5592 643d
00000070: 8e21 6dbd 4f06 b6bc e826 dc3d edb8 94bb
00000080: f9d5 853d 89d3 053e d3cb 63bd e082 f03c
00000090: b984 a53d f4df a73d 6ae9 153e 8352 e53d
000000a0: df04 ab3c 713e 00bd 2625 563c 9625 06bc
000000b0: fd4f 063d 05f7 85bd e76e 1f3d 965a a93d
000000c0: 3bca 2bbd 91a7 433d 905d e2bc 0f1d a93c
000000d0: 2d64 0d3b d65b 983a afa0 2f3d 6038 6fbb
000000e0: af45 003e fe02 ad3d 56e9 54bd 492b d53b
000000f0: 49b2 e53d 8ec1 c4bd 99c7 a6bc eb90 563b
00000100: 15e8 e53d 03c3 183e a0d9 a43d 2ed8 863c
00000110: 23e1 fdbc 15bc 4dbd 7ae4 fabd 1d87 d7bd
00000120: 6fee 9d3d a115 a13d 4ba4 e0bc 380a 9b3d
00000130: 8960 453c 96c7 583d 4910 9d3c dbda 97bd
00000140: 61a0 eabc 94f1 7bbd b933 153b a63e a4bc
00000150: bba0 2a3e df00 7bbd bc0f a03d 8bc6 783c
00000160: 2842 b43b fba4 d03d d835 943d 2dea 45bd
00000170: 7628 ab3b 93b7 813d e085 08be 537d b7bd
00000180: c44b 933d 7f8f 14bd dea5 af3d 14e2 99bd
00000190: ceb1 30bd 6048 aa3c 282d 1fbe e192 b1bd
000001a0: 3d9a df3c 02dd 13be 6aec 003c a015 a6bd
000001b0: c9f7 dcbd e451 723d 3283 f03c 8db6 c13b
000001c0: 7c64 1abc b103 633d ab45 12be 72df 16be
000001d0: 3593 34be e0bc 87bb 4d35 15bd fd94 1ebc
000001e0: be49 853d a162 eabb 73cf 393d 1f36 9dbb
000001f0: cc96 593c c75e 4fbd 1d86 dbbd 99ff 783d
00000200: 909b 223c 87a4 03be afb4 9fbd 8da5 96bd
00000210: 5522 dcbd 0185 fcbc c2bf 08be d182 473c
00000220: 1225 683d 79d9 803d f842 683c 1459 febc
00000230: 6155 98bc 1ded 633d f804 a7bd 7739 3fbd
00000240: 68e4 f5bb 10cd b3bc c6b0 ccbd fb7c c73c
00000250: 1376 263d 6c13 4d3d 1a23 60bc 65d2 08bd
00000260: 62e2 e5bd 4a7b be3c 4fc1 d83d 8adc 3d3c
00000270: d748 cf3d 1d5d 2bbc c904 383c 66f4 bf3d
00000280: 22e0 9bba fcb6 a03d 61b6 b2bc ea46 ffbb
00000290: cae7 4b3d 0454 c83c 752c 8a3d 3a8a 33bd
000002a0: 856f aabb 9d86 0ebd 55b5 01bc 74de c4bd
000002b0: 44eb 23bd 2b0f 26bc 0198 a73d 030f a4bd
000002c0: ac37 4ebd 8045 6d3d f721 c8bc 85b8 debb
000002d0: dd2b b1bd fc2f a4bd 1d90 b2b9 ac77 f8bd
000002e0: 6490 b5bd 2b54 87bd 9118 19be cf37 67bd
000002f0: 29d5 603c 0c0e 5bbc 6b64 1f3d 0e96 393c
00000300: f0c3 20bd 8c10 49bd e316 81bd 055c 41bd
00000310: 6d8f 04be 8fdc 7bbd 1d97 1a3d cc58 acbb
00000320: 16e1 9ebd 7d3a 023e 1fcc e8bd 19f4 9f3d
00000330: df96 0a3e 14e7 cbbc a73d 34bd a78f e43c
00000340: d8df a8bd 827b e1bc c7e4 873d 4c82 93bd
00000350: de6b f4bc 5b25 b53d f43d b3bd 99e1 da3d
00000360: 568e 37be c9c8 f4bd 29b3 4a3d 457c 19be
00000370: 0a01 b6bd 1b48 bbbd 193a 25bd 1d58 33bd
00000380: 94db ab3b 97a3 73bd f309 a0bc e0a7 04bd
00000390: d57b 633d 9c19 9abc cf03 01bd 2fb9 6cbc
000003a0: 7516 353c dc83 e93c c8c7 0c3d 785d 8f3c
000003b0: 2147 d5bc 7272 df3d 5278 3f3e 6f2c 083d
000003c0: ac91 303d a022 9c3d 3382 5d3d eb46 ccbd
000003d0: c3a4 1abe 507f 0b3d de0b 843c 5d19 c3ba
000003e0: 2cd3 843c f3ec ce3d bdc2 0c3d 990a 0f3e
000003f0: 3d80 183c 6fd6 84bc 5517 a9bd f0d1 043e
0.04631403 0.06132261 0.003980914 -0.17066106 -0.10990593 -0.058968328 -0.03855807 -0.015339746
-0.20906714 0.023629196 0.0037922258 0.017544763 -0.08489634 -0.11508658 -0.04333494 -0.020659275
-0.11431035 -0.18226062 -0.10939773 -0.1748231 -0.24401675 0.0024256762 -0.07290726 0.06560914
-0.12094266 -0.043528873 0.074346945 0.055803616 -0.05789333 -0.022219805 0.10749608 -0.0045386464
0.06534953 0.13068976 -0.055614304 0.029359281 0.080819555 0.081970125 0.14639822 0.111973785
0.020876346 -0.03130955 0.01307038 -0.008187672 0.032791127 -0.06541256 0.038924124 0.08269231
-0.04194091 0.047767226 -0.027632505 0.020643739 0.0021574602 0.0011624049 0.04287785 -0.0036502108
0.12526582 0.08447836 -0.05198034 0.006505404 0.11215646 -0.0960723 -0.020358847 0.0032740186
0.11225907 0.14918141 0.08049321 0.016460504 -0.030991143 -0.050228197 -0.1225061 -0.10523818
0.07711493 0.078654535 -0.027422091 0.075703084 0.012046942 0.052924715 0.019172804 -0.0741479
-0.028640928 -0.061509684 0.0022766425 -0.020049404 0.16662876 -0.061280128 0.07815501 0.015184055
0.0055010505 0.101877175 0.072368324 -0.04831903 0.005223329 0.06333842 -0.1333232 -0.089594506
0.071921855 -0.03626966 0.085765585 -0.07513824 -0.043138318 0.020786464 -0.1554457 -0.08670593
0.027295226 -0.14439777 0.0078688655 -0.081095934 -0.10789449 0.05916013 0.029359434 0.0059116543
-0.009423371 0.055423442 -0.14284389 -0.14733675 -0.1763428 -0.0041423887 -0.036427785 -0.009679076
0.06508206 -0.0071528708 0.045363855 -0.0047977115 0.013280582 -0.050627496 -0.107189395 0.060790632
0.009924784 -0.12855731 -0.077981345 -0.07355795 -0.10748736 -0.03082514 -0.133544 0.012177185
0.056675978 0.062914796 0.014176123 -0.031048335 -0.0185954 0.05564605 -0.081552446 -0.046685662
-0.007504035 -0.021948367 -0.09994654 0.024351588 0.040639948 0.05006735 -0.013680244 -0.033403773
-0.1122482 0.023252148 0.10583746 0.011588225 0.10121315 -0.010459212 0.01123161 0.09372787
-0.0011892358 0.078474015 -0.02181548 -0.007790436 0.0497816 0.024454124 0.06746761 -0.043832995
-0.0052012824 -0.034796346 -0.007916768 -0.09612742 -0.04001929 -0.010135452 0.08183289 -0.08010676
-0.05034606 0.05792761 -0.024430258 -0.006796899 -0.086509444 -0.08016965 -0.00034058178 -0.121322006
-0.08865431 -0.06607851 -0.14950778 -0.056449708 0.013722696 -0.013370048 0.038914125 0.01132728
-0.03924936 -0.049088046 -0.063031934 -0.047206897 -0.12945338 -0.061489638 0.03774177 -0.005259609
-0.077577755 0.12717624 -0.11367058 0.0781023 0.13534115 -0.02489046 -0.04400411 0.02790053
-0.0824582 -0.027524713 0.06635433 -0.072025865 -0.029836591 0.088450156 -0.08752051 0.106875606
-0.1792539 -0.11952359 0.049487267 -0.14988811 -0.08886917 -0.091446124 -0.04033861 -0.043785203
0.0052446816 -0.059482183 -0.019535994 -0.03238666 0.055538017 -0.01881104 -0.031497773 -0.014448448
0.011052717 0.028505258 0.034370214 0.017500624 -0.026034893 0.109105006 0.18698242 0.0332455
0.043107674 0.07623792 0.054079246 -0.09974464 -0.15101914 0.03405696 0.01611894 -0.0014884878
0.016213976 0.10103788 0.034365404 0.13968886 0.009307918 -0.016215531 -0.08256403 0.1297071

features.2.block.0.bias f4 [32]
00000000: fe74 2ebd f0fb 69bd 091f 7fbd 0e56 99bc
00000010: cde1 23bc f821 e33c b370 67bd 9048 893c
00000020: a1ad 25bc 5b10 1abd eb34 1f3c 5261 b5bc
00000030: c7f7 5cbd 9826 953d cc4f b03b 2e6f 723c
00000040: 4e76 9a3d 5234 4cbd ebb8 59bc c39b b6bc
00000050: 7041 39bd 7c72 213e 200a 9cbd edd6 bc3d
00000060: 4cb0 2d3d 82ab d5bc 1e20 1dbc ecc6 3e3d
00000070: 7bfb 8c3c 7adf bbbb 1fb6 153d 4f9f 133e
-0.04259204 -0.057125032 -0.062285457 -0.018717792 -0.010002566 0.027726158 -0.056503963 0.016758233
-0.010112197 -0.037613254 0.0097172065 -0.022141133 -0.053947236 0.07282752 0.0053806063 0.014797015
0.07542096 -0.049854584 -0.013288717 -0.02229107 -0.04522842 0.15766329 -0.07619119 0.09220681
0.042404458 -0.026082758 -0.009590177 0.046576425 0.017209759 -0.0057334276 0.036550637 0.1441624

features.3.block.0.weight f4 [32, 32, 3, 3]
00000000: 0137 343d 709d 513c d647 56bd 0602 13bd
00000010: 1460 18bd 9550 453a 9de1 b13c 1109 21bc
00000020: a064 8dbd 12cc 70bd d93e 08bd a6e6 69bd
00000030: 5fd8 113c d0dc eaba e1d3 6ebd 8d58 63bd
00000040: 4f65 82bd 0031 04bd 2c05 b53c d99d fdbc
00000050: d0ab 4ebd d172 8b3b ddf1 29bb 650e 5ebd
00000060: 6af9 fd3b 0ecf 203c 8dd4 583c 8782 993c
00000070: 1c45 27bd 6176 77bd 0207 c13c 8d3f 1e3d
00000080: 0a8d e43c 62e7 873c ea8b 273d 43e5 dd3b
00000090: 859c 82bd bd4f 793c 7462 7cbd 590a 8bbd
000000a0: aeca ce3c 83af 00bd 045b 74bd 6704 6c3d
000000b0: 6fcd c23b 512f fc3b c353 08bd 408e 923c
000000c0: 0183 fbbc 4c14 11bd 5d15 2bbd 4e92 933c
000000d0: 9b8d 48bd 2828 9bbc 3ea5 a13c 7d54 4bbc
000000e0: d2e8 9b3b c781 61bd 73ed 073d 9c8a 7fbd
000000f0: 38b1 1fbd 2aac 80bd 4656 7bbd 06a0 873c
00000100: 5123 b93c 5c6f 233c 2b1b 313c 3f90 af3c
00000110: 11a5 223c 8f7c 543c 9b82 34bd 52ab ef3c
00000120: 5ff9 da3c 10f8 a53c b056 94bc e864 fe3c
00000130: 219a 5fbc 328a 3bbd 61cf 2cbd 78fb 23bc
00000140: cc0e 853c 939f 5439 f0d8 41bc 5a1e 0c3d
00000150: 0baf ae3c ca88 7cbd c373 4dbd a9e0 c5bc
00000160: 629e c0bc c03f 90bd d1ee fcbc 1a52 3c3d
00000170: add2 60bd 7da7 02bc 938e 7f3a fed5 23bd
00000180: 7f9d 18bd ebd0 1bbd 3275 63bd 8a0e 92bd
00000190: 469b 043d 2d12 84bc 806e 7abc 8a80 86bc
000001a0: de4d 6dbd 379c e0bc 14a9 76bd f745 d33c
000001b0: 0ad2 e6bc ebe4 4abc 34a9 923c 3cde 55bd
000001c0: 8aa2 2dbd 6080 e7bc e991 e5bc a1de 52bd
000001d0: 698a aabd 3af7 523c 934b 0c3c 836b 18bd
000001e0: 36a6 80bd 25c3 75bb ea09 56bd f5fe 8fbd
000001f0: 59ff 9ebd 10ce cbbb 7ae0 e43a ecfa 533d
00000200: 9df9 26bd 7c41 4ebd 2b6f 5a3d 713f b83c
00000210: fd02 8cbd f975 93bd 2787 6c3c 30a9 24bd
00000220: b374 463b 1a10 a9bc cff4 e0bc f8f9 023d
00000230: 222e 8dba 22bb 9a3b 45c9 61bd fcd5 17bd
00000240: 0502 f63b a7ce bf3c 8e71 a33a e353 8cbd
00000250: 4d10 28bd 0046 4b3d 453b ed3c 8739 863c
00000260: de01 4dbd 1d3d d3bc bd62 e33c d3ab 62bd
00000270: c91e 53bc aa6e fe3c e96d fb3c 7f1b 013d
00000280: c399 e2ba 6cc3 473d e9b7 8fbd 686b cabc
00000290: aef9 b6bc e52a 8a3c bc42 6bbd 641b 263d
000002a0: a974 40bd 15df edbc e13a 333d d88e 093d
000002b0: c5e1 723b b0a7 8abc 2225 033d dbb7 37bc
000002c0: 8ae5 053d 431c 1b3c 508e 90bc 0b25 303d
000002d0: edc2 a73c aaac 4c3d f9b4 433d 1196 f6ba
000002e0: 1967 14bd 1b7d 2cbd 87af ebbc 9b27 09bd
000002f0: 75a8 d3bb 798e 2d3d d58f 003c 4fc0 3e3b
00000300: caf2 263c 6880 5dbd 81a1 bb3c 64f4 f63c
00000310: 89ab ba3b 1ea8 b6bb 2969 033d 8ef9 57bd
00000320: 5618 d93c 5865 fdbc 7c81 a5bd 7699 3f3c
00000330: 77e1 97bc 54e8 94bc a6f8 2ebd 7ae8 debc
00000340: 4b42 c2bc ca62 92bd ceed a03c e6fb 1bbc
00000350: 34f5 5e39 63bd 363d 7766 1cbd f230 53bd
00000360: c212 56bd c7b8 eabc 7e66 1ebd c1ae c63a
00000370: 4893 763c dcb8 503b 5533 54bd 54c2 81bd
00000380: cc47 22bc 6b27 a3bb 9131 34bd 21ac 1bbd
00000390: a2f4 04bd 4926 7cbd af53 4c3d 21e4 9d3c
000003a0: cae6 7dbd 18e9 56bd 3435 2b3d 2b8e 193d
000003b0: c6ec 8cbd eecb bf3a a994 6cbd ce8f 60bd
000003c0: 6621 4ebd 8dca 82bc 519e fa3c ca30 913c
000003d0: 72a8 9fbd d450 443c fd2b 2f3d be0f ba39
000003e0: a7a2 013d dbb8 5bbd 91d9 7bbd 0fed 283c
000003f0: 3335 7dbd c0ee 84bc baf0 1f3d a4aa 323b
0.04399777 0.012793884 -0.0523146 -0.0358906 -0.037201002 0.0007526961 0.021714026 -0.009828822
-0.06903958 -0.058788367 -0.03326306 -0.05710473 0.008901685 -0.001791859 -0.058307532 -0.05550437
-0.06366979 -0.032273293 0.022097193 -0.030959057 -0.050456822 0.0042556305 -0.0025931515 -0.054212946
0.0077506797 0.009814991 0.01323427 0.018738998 -0.040837392 -0.06041563 0.023562912 0.038634825
0.027899284 0.016589824 0.040904917 0.006771715 -0.0637751 0.015216765 -0.06161733 -0.06789083
0.02524313 -0.03141738 -0.05965711 0.057621386 0.0059448997 0.0076960702 -0.033283006 0.017890096
-0.030702116 -0.035419747 -0.04176842 0.0180141 -0.04896317 -0.018940046 0.019732114 -0.01241028
0.004757979 -0.055055406 0.033185434 -0.062388048 -0.03898737 -0.06282838 -0.061361574 0.016555797
0.022599848 0.009975281 0.0108097 0.021431087 0.00992705 0.01296915 -0.044069868 0.029256497
0.026730238 0.020259887 -0.018107742 0.031053975 -0.013647587 -0.04578609 -0.04218996 -0.010008685
0.016242407 0.00020277342 -0.011831507 0.034208633 0.021323701 -0.06165389 -0.050159227 -0.024154978
-0.023513023 -0.07043409 -0.030875595 0.045976736 -0.054888416 -0.007974503 0.0009748723 -0.039999
-0.037259575 -0.038041037 -0.055531688 -0.07131679 0.032374643 -0.016121948 -0.015285134 -0.016418714
-0.057935588 -0.027418239 -0.06021984 0.025790198 -0.028176326 -0.01238368 0.017902948 -0.052213892
-0.042391337 -0.028259456 -0.028023677 -0.051481847 -0.08327181 0.012876326 0.00856294 -0.037211906
-0.06281702 -0.0037500348 -0.05225555 -0.07031051 -0.077635475 -0.006219633 0.0017461919 0.05175297
-0.040765394 -0.05035542 0.053328674 0.022491189 -0.068365075 -0.07200236 0.01443652 -0.040200412
0.003028196 -0.02063756 -0.027460484 0.03197667 -0.0010771195 0.004722015 -0.055123586 -0.037069306
0.007507565 0.02341397 0.0012469755 -0.068519376 -0.04103117 0.049627304 0.028958926 0.016384853
-0.05005061 -0.025785977 0.027757043 -0.055339646 -0.012885758 0.031058628 0.030692058 0.031520363
-0.0017288256 0.048770353 -0.070175 -0.024709418 -0.022335853 0.016866157 -0.05743669 0.040553465
-0.046986256 -0.029037038 0.043757323 0.033583492 0.0037060839 -0.016925663 0.032017834 -0.011213268
0.03268961 0.009467187 -0.017645985 0.043004077 0.02047869 0.049969353 0.04778001 -0.0018813034
-0.036231134 -0.042111497 -0.028770221 -0.033485036 -0.0064592906 0.0423722 0.007846792 0.0029106324
0.010189721 -0.054077536 0.02290416 0.030145831 0.005696718 -0.0055742403 0.03208271 -0.05272823
0.026500862 -0.030932114 -0.08081338 0.011694303 -0.018540127 -0.018177189 -0.0427176 -0.027210463
-0.023713252 -0.07147749 0.019644644 -0.0095205065 0.00021262915 0.044614207 -0.038183656 -0.05156035
-0.052263983 -0.028652562 -0.038671963 0.0015158282 0.015049763 0.0031848466 -0.051806767 -0.06335893
-0.009904813 -0.004979064 -0.043992583 -0.03800595 -0.032459863 -0.06155995 0.049884494 0.01927382
-0.061987676 -0.05246839 0.041798785 0.037489098 -0.068810984 0.0014632919 -0.05775896 -0.054824643
-0.05032482 -0.015965724 0.03059307 0.01772346 -0.077958 0.011982162 0.04276656 0.00035488413
0.031649258 -0.05364309 -0.061486784 0.010310425 -0.061818313 -0.016227126 0.039047934 0.0027262354

features.3.block.0.bias f4 [32]
00000000: e623 793c 40a9 153c 08d0 b43d 2755 c13c
00000010: 5c5e 6dbd e60d 1f3c 3965 74bc a5bc 143d
00000020: b29e ddb8 c5bf 58bd 3e43 86bc e9e2 20bd
00000030: 1998 9d3d 5abe a0bb 22ed 8ebc 4164 25bd
00000040: 8fe9 043d edb1 c63b d818 67bd f97b ccbc
00000050: 7c19 d3bc 8147 883d 4966 babd 7589 b03d
00000060: d5dc 393c b706 a6bd eb91 8dbc 3de3 f5bc
00000070: 327f 5abc 76e8 70bd 2a37 513d 2b24 383c
0.015206313 0.009134591 0.08828741 0.023600174 -0.057951316 0.0097079035 -0.0149167115 0.036312718
-0.000105676605 -0.05291726 -0.016389485 -0.0392789 0.07695026 -0.004905504 -0.017447058 -0.040378813
0.0324493 0.006063691 -0.056420177 -0.024961459 -0.025768988 0.06654263 -0.091015406 0.08619968
0.011344154 -0.081067495 -0.017281493 -0.030015582 -0.01333599 -0.058815442 0.051078 0.011239092

head.2.weight f4 [5, 32]
00000000: e45d 20bd 0885 2d3d f0a3 7d3d fb01 c6bd
00000010: 0f6e 19be 9257 96bc e6ec c3bb 3f49 88bd
00000020: a992 9c3d 79cd 50bd 384b 4b3d 63bf 323d
00000030: e1c2 63bd c57d 603d 3719 4fbc a540 1cbe
00000040: e0c5 073d 6e4a 1bbc 13b4 e0bd 5537 15bd
00000050: 8cd3 433c b01d acbd 8964 e83d 1217 76bd
00000060: 52e2 9ebc c7d1 233d 0e32 973b 9fa1 cdbd
00000070: b57d b93d f297 56bd 42e3 f0bd 5556 55bd
00000080: 3dbd 77bd 5d6b 2a3d 9e5a 8e3d ec34 d3bd
00000090: 052f 92bd 8a11 793c fd1a 27bc 1347 eb3c
000000a0: bfa7 4bbd 41e5 37bd f740 1e3d 437c aabd
000000b0: 440b 79bd dfc1 e8bd 0f15 46bc 29ca 0b3e
000000c0: 1e5e 5c3d f3da 1ebc 11e6 9d3c 0004 0bbe
000000d0: 996a ab3c 5bd2 9cbd 641a 5fbd c2be 65bd
000000e0: 9a8c 67bc e58f 26bd d0c3 e2bd d531 bbbd
000000f0: b463 3d3d 4ddf debd af1c e2bd 1b6c 34bd
00000100: c9c1 00bd f22c 453d 04bc 663d 1fb6 f43c
00000110: ecda e73d 0bcb 033c 5be2 aa3b 5ece f3bc
00000120: 601e a6bb 5713 4dbd 7862 073e a09f 89bd
00000130: 1ce2 7fbd fd30 0ebd 0753 8ebc fa0e 8ebd
00000140: d4c4 2b3d 7133 33bc 4465 d2bc e38a 25be
00000150: 291c 973c 99fe a2bd b5ed ab3d 96cc 88bd
00000160: 4acc a8bc 4353 053e 9e91 003e 8fc4 c6bd
00000170: 325a e93c d89b 5fbd ab31 f9bd 1816 57bd
00000180: 5311 183e c8f7 2f3d cbac 9c3d 2ef2 15bc
00000190: c009 f53d ecda c6b9 6019 ea3a 79b2 483d
000001a0: fccd a33d 09b6 60bd aee6 e8bc 7f0f 90bd
000001b0: 4ad7 60bd f6ff 76bc d7b7 41bc 0fb2 133e
000001c0: 1cc1 493d a4c7 71bb af68 c83b c88d cd3c
000001d0: 11e9 d83c 26d2 a2bd 4db2 9abd a04c 77bd
000001e0: f1ca 28bc 57ec 8bbd 4ab8 e2bd 1f26 c7bd
000001f0: 4b8c 683d cefc d43d 0bda debd b07c 3cbd
00000200: 1c68 32be 048a 3a3d 2375 773d a5d4 43bd
00000210: 344b 54bd 79a8 223c 4890 bf3b 0413 853d
00000220: 5828 98bd f76f 51bd 7a68 3fbd 51e1 273d
00000230: ad57 79bd 68d4 e1bd fef0 50bb 54b2 26be
00000240: d485 6f3d 119d 1bbc 2b7e 2b3e 12b8 3abe
00000250: 9dda c13c 9cac 99bd fcf8 a13d 7e17 54bd
00000260: e813 7abc 0c08 cc3c 4748 5dbd acbd b9bd
00000270: f5f4 2c3d a9d3 cabc 1bbe eabd f866 4ebd
-0.03915204 0.042363197 0.06192392 -0.096683465 -0.1498339 -0.018352304 -0.005979168 -0.066545956
0.07645161 -0.050977204 0.04963228 0.04363955 -0.055605773 0.054807443 -0.012640289 -0.15259035
0.033147693 -0.009478195 -0.109718464 -0.03642972 0.011952292 -0.084041 0.113473006 -0.060080595
-0.019395027 0.03999498 0.0046141213 -0.100405924 0.0905718 -0.052391 -0.11762096 -0.052084286
-0.060483206 0.041606296 0.069508776 -0.103128284 -0.071378745 0.015201936 -0.010199306 0.028720414
-0.049720522 -0.044896368 0.038636174 -0.08324482 -0.06080176 -0.11365103 -0.012089982 0.13651337
0.053800695 -0.009695756 0.019274743 -0.13575745 0.020924853 -0.076573096 -0.054468527 -0.056090124
-0.014132643 -0.040664572 -0.110725045 -0.09140364 0.046237662 -0.10882435 -0.11040627 -0.04404841
-0.031434808 0.048138566 0.05633165 0.029871998 0.11321053 0.008044015 0.005214972 -0.02976149
-0.005069539 -0.050067272 0.13221157 -0.06719899 -0.062471494 -0.034714688 -0.017373575 -0.0693645
0.041935757 -0.010937558 -0.025683053 -0.16166262 0.018446045 -0.07958717 0.083949484 -0.06679647
-0.020605225 0.13020043 0.12555549 -0.09705459 0.028485391 -0.054591984 -0.121676765 -0.052511305
0.14850359 0.042960912 0.07650145 -0.009151978 0.1196475 -0.00037928612 0.0017860346 0.04899833
0.07998273 -0.054861102 -0.02843031 -0.07034206 -0.054892816 -0.015075674 -0.011823616 0.14423393
0.04925643 -0.0036892677 0.006115995 0.02509202 0.026478322 -0.07950239 -0.075535394 -0.06037581
-0.010302291 -0.068321876 -0.110703066 -0.09724068 0.05677442 0.10399781 -0.10881432 -0.04601735
-0.17422527 0.04554178 0.060414445 -0.047810216 -0.05182953 0.009927862 0.005846057 0.064977676
-0.0742957 -0.05113217 -0.046730496 0.040986363 -0.06087463 -0.110268414 -0.0031881924 -0.16278964
0.058477238 -0.009497897 0.16747348 -0.1823428 0.023663813 -0.07503626 0.07908818 -0.051780216
-0.015263535 0.02490618 -0.054024007 -0.0906938 0.042225797 -0.02475913 -0.11462041 -0.050391167

head.2.bias f4 [5]
00000000: 3a54 0a3d 15d0 88bd 33fb 8c3c fceb 46bd
00000010: cfd2 d0bc
0.03377173 -0.066803135 0.017209625 -0.048564896 -0.025491146
