results_maml/cifar10_5way_1shot_q15_inner1-lr0.4_1st_mf32_d4/best.pt (torch, 124725 bytes, 22 tensors)

features.0.block.0.weight f4 [32, 3, 3, 3]
000000 13 b5 30 bd 5d e8 c9 bb 92 c0 f8 3d 9b c7 81 3c
       -0.043141436 -0.006161733 0.12146105 0.01584225
000010 0a 01 32 be 9e 7f 45 3e a8 4b aa bd d7 72 0a be
       -0.17383209 0.19286963 -0.083152115 -0.1352037
000020 4e bd 91 3d ca 75 87 3c 2e c9 1d 3e 39 8a 01 be
       0.07116185 0.016535658 0.15408775 -0.12650384
000030 dc 7d dd 3d 65 88 c7 3d 66 68 f7 3d 56 b5 ef bd
       0.108150214 0.09742812 0.12080459 -0.11704509
000040 93 ed 30 3e d2 45 86 bd 8c b1 9c 3d af cd 1f be
       0.17278127 -0.06556286 0.07651052 -0.15605806
000050 eb b2 22 be 91 26 60 3d 93 d4 df bd 18 09 51 be
       -0.15888564 0.05472428 -0.10929217 -0.20413625
000060 b9 58 46 be 52 ad 15 3e 30 0e 96 3d 94 af 32 be
       -0.19369783 0.14616898 0.07326925 -0.1744979
000070 9e 15 c9 bc d9 55 fc bb 1e 7c e2 bd 4b 95 87 3d
       -0.02454644 -0.0077006635 -0.1105883 0.06620272
000080 ee 1c 35 bd 8e 43 d5 3d 87 4e 22 be 6f 4c 2e be
       -0.044217043 0.10413276 -0.15850268 -0.17021345
000090 f6 87 fc 3c ab 4f ef 3b 8f 72 7e bd eb 2a 66 3d
       0.03082655 0.0073031983 -0.06212097 0.056193274
0000a0 e6 8f 9e 3d c4 e4 fc bd 8e 2f a0 bd 70 11 47 bd
       0.0774229 -0.12348321 -0.0782157 -0.048600614
0000b0 9a 16 b7 3d 27 41 07 3d a4 f2 e4 3b be 83 6b 3e
       0.08939858 0.03302112 0.006986933 0.22999474
0000c0 d9 dd cf 3d cf b9 55 3e 4d 4b 81 3e 9c 37 02 3e
       0.10149736 0.20871662 0.25252762 0.12716526
0000d0 b6 62 59 3e e1 ed 7b 3e 03 ce 22 3e e8 c6 1b bd
       0.21229061 0.24602462 0.158989 -0.03803149
0000e0 c4 bf fd bd b5 e3 88 bd 92 1e 7c 3d a0 38 3e 3e
       -0.12390092 -0.06684057 0.06155259 0.18576288
0000f0 70 e8 05 3e c0 d9 35 3e 8d 24 54 3e 5a 66 66 be
       0.13076949 0.17758846 0.20717068 -0.22499982
000100 45 77 45 be 7f 83 0f be 6c ca 4b be dc 87 3a be
       -0.19283779 -0.14015006 -0.19901437 -0.18215889
000110 e4 bc e6 bd de be ca bd e5 14 84 3d 8b 6c fc 3c
       -0.11266497 -0.09899686 0.06449298 0.030813476
000120 67 f2 2b 3c f2 17 1f be 22 c8 0d bc 13 b9 86 bb
       0.010494805 -0.15536478 -0.008653672 -0.004111418
000130 90 ad 2d 3e 76 d4 0c be 89 b4 8d 3c 70 94 2d 3e
       0.1696074 -0.13752922 0.017298 0.16951156
000140 b6 f3 45 3e 46 79 f0 bd fb 87 fa bd 47 12 80 be
       0.1933125 -0.11741881 -0.122329675 -0.25013945
000150 00 a4 49 be 4f a2 57 3d 25 d8 cb bd b8 c8 e9 bd
       -0.19691467 0.052645024 -0.09953336 -0.11415237
000160 aa c6 33 3e d8 54 4a 3e 98 1d c7 3c 7b 30 2f be
       0.17556253 0.19758928 0.024306104 -0.17108338
000170 ac 10 33 be 9c be 1e be 09 ce 40 3d c8 29 ee 3d
       -0.17486829 -0.15502399 0.04707149 0.11629063
000180 3b ce 6a 3e 59 8b 01 3e 2a 91 3f bd 48 83 04 be
       0.22930233 0.12650813 -0.0467693 -0.12940705
000190 8f f4 e4 3d 89 41 09 be a7 b1 4a 3e 79 5b af bd
       0.11179458 -0.13403906 0.19794331 -0.08562369
0001a0 72 c6 38 bd 40 f5 60 3e 1f ff 32 3e 2d be f0 3d
       -0.045111127 0.21968555 0.17480133 0.11755023
0001b0 11 ba 7d 3d 1e 3a 8b 3d fc 27 f9 3d a6 cc 0c 3e
       0.061945025 0.06798194 0.121658295 0.13749942
0001c0 e3 db 35 bd 41 d0 5c be 30 78 c7 bb b2 64 43 3d
       -0.044399153 -0.21563818 -0.0060873255 0.047703452
0001d0 5d 0e 1f be 64 ed d1 3d 72 c6 b2 3d 83 07 98 3d
       -0.15532823 0.10250357 0.08729257 0.07423308
0001e0 0d 80 26 3e a5 24 1a 3e ba 86 7f bc 3a 69 93 3a
       0.16259785 0.15053041 -0.015596086 0.001124657
0001f0 eb ff 9c 3d d1 70 93 3d 48 f2 62 be 63 39 5d be
       0.07666 0.071992524 -0.22162735 -0.21603923
000200 40 f3 84 bc 8f 24 89 3d 7e 3a 3a be 4c e0 7c bd
       -0.016229272 0.06696426 -0.18186375 -0.061737344
000210 de ea 00 3e f5 16 4b be 2e 51 9f bd 3c fd 3a 3e
       0.12589595 -0.19832976 -0.07779156 0.18260664
000220 e0 c0 58 3d c7 6e 24 3e 97 13 08 3c 96 5e 9a bd
       0.052918315 0.16057883 0.008305452 -0.07537572
000230 fa ee a5 3d 69 72 93 bd ff 57 2f be cd 9a fd 3d
       0.08102222 -0.071995564 -0.17123412 0.123830415
000240 74 6d 82 be aa 98 c2 bd c6 fe 77 be 31 6b d7 bd
       -0.2547413 -0.095017746 -0.24218282 -0.10518492
000250 ec 51 f1 3d 33 40 ac bc 89 2b 29 be 5e cd 9a 3d
       0.117832035 -0.021026706 -0.16520514 0.07558702
000260 3c f0 8b be f1 88 85 bd b4 2c 88 3d 51 db 08 be
       -0.27331722 -0.0652026 0.066491514 -0.13364913
000270 89 6e 2f 3e 3f f8 49 3e be d6 02 3e d4 e4 53 3e
       0.1713201 0.19723605 0.1277723 0.2069276
000280 f9 56 5f bc a1 e2 db bc fe a8 56 be f8 6a fa 3d
       -0.013631576 -0.026841464 -0.20962903 0.12227434
000290 db cc 50 3e 82 c1 71 be d7 9b 78 3e 64 41 af 3d
       0.20390646 -0.23608974 0.24278198 0.08557394
0002a0 30 26 41 be 79 5d 39 3e b4 50 76 3d c1 95 39 be
       -0.18862224 0.18102063 0.06013556 -0.18123533
0002b0 89 53 1a bd 34 d4 d0 3b 7d 8c 90 be d5 11 0f 3e
       -0.03767732 0.006372953 -0.28232184 0.13971646
0002c0 30 0f bf bd de 98 15 bc 7f 19 47 3d 5d 97 9f 3c
       -0.09329069 -0.009130685 0.0486083 0.019481355
0002d0 ec 58 63 be 2d 38 b5 3d d9 18 1d 3e b5 2a 1f bd
       -0.2220189 0.08848605 0.1534151 -0.038859088
0002e0 df 6f 47 3e 73 4a 35 bd 80 70 5f be 0d 4f b4 3c
       0.19476269 -0.044260453 -0.21820259 0.02201035
0002f0 6b c1 0f 3e 72 f3 05 be 56 6b a8 bc 94 4a 1f bd
       0.14038627 -0.13081148 -0.020558994 -0.038889483
000300 e2 6a 26 be 9d 86 41 3e 76 f4 84 3e 95 88 39 bc
       -0.1625171 0.18899007 0.2596776 -0.011324068
000310 72 8c cc 3c a6 e3 3e 3e af 79 85 be f2 ee 20 3e
       0.024969313 0.18641528 -0.260694 0.1571615
000320 44 4b 6e 3e 84 74 b0 bd b5 f7 2d be 46 86 96 3d
       0.23270899 -0.086159736 -0.16989024 0.073498294
000330 0d 0f 71 be e6 f3 81 bd 2e 65 36 3c 53 74 a4 3c
       -0.23540898 -0.06345348 0.011132522 0.020074999
000340 c8 01 d0 3c 14 aa e9 bc 87 9c 29 be 90 d5 0d be
       0.025391474 -0.028523482 -0.16563617 -0.13850999
000350 40 8b 41 3e 18 fa bf bd f1 60 be 3d d6 3c 0b bc
       0.18900776 -0.093738735 0.09295834 -0.008498391
000360 81 6e 89 3e 9d e9 20 be 4f 55 0f bd 29 16 42 3e
       0.2684212 -0.15714116 -0.034993466 0.18953766
000370 ca 26 98 bd fc bd 7c bd f0 6a 58 3d 84 08 4b 3e
       -0.074292734 -0.06170462 0.05283636 0.19827467
000380 8c 59 5a be de 22 62 3e c4 6d 28 bc ed 5f f4 bd
       -0.21323222 0.22083613 -0.010280076 -0.11932359
000390 4a 4a 90 3e 59 87 86 3d 48 f5 79 bd 9a af 98 3d
       0.28181678 0.06568784 -0.061024934 0.07455368
0003a0 72 96 d3 3d 8d 33 2c 3c 52 9c 61 3e 22 57 1a bc
       0.103314295 0.010510338 0.22032288 -0.009420188
0003b0 fb dd 80 be 08 c4 75 3d b2 f6 fc bd 68 59 0b be
       -0.25169358 0.060001403 -0.12351741 -0.13608325
0003c0 c2 de 0c 3e 8f fc d9 3d eb f2 43 be a7 e3 83 3d
       0.1375685 0.10643875 -0.19135635 0.064399056
0003d0 ad a7 3f be e7 9c 1b 3e e4 bd 0b be 6d 79 64 be
       -0.18716307 0.15196572 -0.13646656 -0.22311945
0003e0 dc 61 06 be fc 03 a1 3d a6 5c 50 be 0c 43 d4 bd
       -0.13123268 0.07862088 -0.20347843 -0.10364351
0003f0 e5 fa 4d 3e 0a ec 18 be 71 70 4d 3e f6 37 b6 3d
       0.2011524 -0.14933792 0.20062424 0.088973925

features.0.block.1.weight f4 [32]
000000 22 15 68 3f dd ab 75 3f 44 a1 72 3f 55 c9 85 3f
       0.90657246 0.9596537 0.9477732 1.0452067
000010 87 33 70 3f 2d ff 6b 3f 13 2b 8c 3f 7c c0 8c 3f
       0.93828624 0.9218624 1.0950645 1.0996242
000020 93 74 8b 3f ea 18 82 3f 0a c6 8b 3f 87 1c 6b 3f
       1.0894951 1.0163853 1.0919812 0.91840404
000030 3d cb 89 3f 66 41 8b 3f fc b9 83 3f b0 65 89 3f
       1.0765148 1.0879333 1.0291133 1.0734158
000040 3f 0f 6c 3f eb dc 8b 3f 90 08 73 3f de 05 7c 3f
       0.92210764 1.0926794 0.9493494 0.9844645
000050 ad 75 75 3f b9 28 76 3f ee d0 76 3f a2 16 79 3f
       0.95882684 0.9615589 0.9641255 0.9730016
000060 40 16 87 3f cd 2b 87 3f 00 b9 82 3f 1f 72 85 3f
       1.0553665 1.0560242 1.0212708 1.0425452
000070 9a 91 89 3f 8f 16 7c 3f a3 4c 69 3f c4 a5 6d 3f
       1.0747559 0.9847192 0.91132563 0.92831063

features.0.block.1.bias f4 [32]
000000 65 71 17 be 1f 2f 8c bd 71 72 f5 3c d6 95 8e bc
       -0.1478935 -0.06844925 0.029961796 -0.017405432
000010 26 86 46 bd 9a ea 80 be 9c b4 bd 3c a9 b0 52 3d
       -0.048467778 -0.25178987 0.02315741 0.051438008
000020 8e 8f 9f bc 48 37 bc bc 62 de 9a 3d 87 f9 df bd
       -0.019477632 -0.022975579 0.075619474 -0.109362654
000030 52 16 26 bd 1f 5c 0b 3d 35 03 71 bd be 67 82 3d
       -0.04054863 0.0340234 -0.05884095 0.063674435
000040 dc eb a3 bd 61 2a 03 3e 56 e0 00 be c8 a5 b9 bd
       -0.08003971 0.12809135 -0.12585577 -0.090648234
000050 70 86 00 be 9c 95 07 3e ff bf ff bc 19 7e 42 bc
       -0.12551284 0.13240665 -0.03121948 -0.011870884
000060 21 1c ef 3a 8f 54 71 3b 90 6e ad bd 58 b3 63 bd
       0.0018242636 0.0036824082 -0.08468354 -0.055590957
000070 26 1a 9b bd cc 20 d0 bb fd 9a 5a bd 2e d6 21 be
       -0.07573347 -0.006351566 -0.053370465 -0.1580436

features.0.block.1.running_mean f4 [32]
000000 29 88 e9 3c 86 86 59 be 89 a5 08 3d 3e ea c5 3b
       0.028507309 -0.21242723 0.03336099 0.0060398867
000010 2f 66 27 3d 1b db a3 3d 8e 78 86 bb 76 57 3b 3d
       0.040868934 0.080007754 -0.0041037267 0.045737706
000020 53 39 0a be 29 89 a8 bd 89 93 b7 3b 87 32 8f 3d
       -0.1349843 -0.08229286 0.0056023044 0.06992059
000030 35 c6 9f 3c 05 cb f3 3a c3 c4 88 3d 24 df f0 bb
       0.019503692 0.0018599933 0.06678154 -0.007350819
000040 4c e7 9e bd 1e 59 8b 3c 52 6b dd be c3 8a 29 bd
       -0.0775896 0.017010268 -0.4324594 -0.0413921
000050 b2 a4 bb be 1d 4b dd b9 4d 8b 5f 3d 64 c0 1b 3b
       -0.3664909 -0.00042208369 0.054576207 0.0023765797
000060 74 f7 98 3e 9d 91 7c 3e 8d 0a 56 3e 33 c3 02 bf
       0.29876292 0.24664922 0.20902462 -0.510791
000070 eb f5 ca 3c 7b 66 a3 3e 3a e8 d2 3c 87 da 8d 3d
       0.024775466 0.31914124 0.0257455 0.069264464

features.0.block.1.running_var f4 [32]
000000 68 47 3c 3e d1 12 c7 3f 33 ee 5b 3f eb a8 9a 3f
       0.18386614 1.5552617 0.8591034 1.20828
000010 0c ae d8 3e 44 9f ed 3e 28 fc 93 3f 4e 33 6b 3f
       0.42320287 0.46410573 1.1561327 0.9187516
000020 f9 30 e4 3f 59 df db 3f 5d e1 be 3f 42 5f 83 3f
       1.7827445 1.7177535 1.4912525 1.0263445
000030 8d ff 8c 3f e0 4c 95 3f a9 e3 30 3f 08 26 63 3f
       1.1015488 1.1664085 0.6909738 0.88729906
000040 24 1f 31 3f 75 71 38 3f 53 b4 8c 40 d2 b9 69 3f
       0.6918814 0.7204812 4.397012 0.91299164
000050 a7 42 4a 40 36 db 16 3f 94 7c 71 3e 5a 84 28 3f
       3.1603181 0.5892824 0.23582679 0.6582695
000060 cd 07 24 40 4b 00 bf 3f f4 81 ab 3f 8f 78 ad 40
       2.5629761 1.4921964 1.3399034 5.4209666
000070 77 47 f3 3f 16 f2 11 40 9e fa e7 3e c3 ac a0 3e
       1.9006184 2.2804008 0.45308393 0.31381807

features.1.block.0.weight f4 [32, 32, 3, 3]
000000 db 89 3d bb 03 48 a2 3d df 51 f2 3c c8 4f fb bc
       -0.002892128 0.079238914 0.029580055 -0.030677691
000010 6c 94 fd bc d9 7d 55 bd 61 97 e7 bc 70 1c 50 bd
       -0.030954562 -0.05212197 -0.028270425 -0.05080837
000020 a4 cc 40 bd 94 85 7f bd 59 09 03 bd 48 7f 84 3c
       -0.04707016 -0.06238325 -0.031991336 0.016173974
000030 38 e3 41 bd ef 07 a8 bd 7a 70 3b bc e9 68 26 bd
       -0.047335833 -0.08204638 -0.011440391 -0.040627394
000040 dc 98 2e bd 5d a4 6b bd 03 d5 75 bd 69 95 99 3b
       -0.042626247 -0.057529796 -0.060017597 0.0046870005
000050 91 66 54 bc 08 eb 0b bd 0a 0d a5 bd 1f 68 d1 bd
       -0.012963907 -0.03415969 -0.08059128 -0.10224938
000060 ad e4 98 3c f7 48 0b bc 75 14 b8 3d 58 32 fb bc
       0.018663729 -0.008501283 0.08988277 -0.030663654
000070 3b ae e2 bc 58 fc 1c bc 18 4a 37 3d 3e 93 b4 3d
       -0.02767097 -0.009581648 0.044748396 0.08817147
000080 e2 81 1e 3d 4c 97 65 3d 25 80 c6 3d 6f 13 d6 3d
       0.038698085 0.05605249 0.096924104 0.104529254
000090 2d 78 ca 3c 57 f2 85 3d f4 49 93 3d b9 34 a6 bd
       0.024715507 0.06540363 0.0719184 -0.08115525
0000a0 ef 8e e8 3c 3b 6f 98 3c f0 c1 1f bd 3e 62 88 bd
       0.028388469 0.018607726 -0.039003313 -0.06659363
0000b0 29 2a 15 bb 6b ad 85 3c af 63 af bb 6e 8f b1 3c
       -0.0022760725 0.016318044 -0.0053524594 0.021674838
0000c0 d5 a5 05 bd dc 4c 9d bd ce 65 e3 3b b8 b7 38 bd
       -0.032628853 -0.076806754 0.0069396263 -0.045097083
0000d0 1c 99 33 bd f1 0f f8 bc 69 97 d7 bc 51 e4 e4 bc
       -0.04384719 -0.030281039 -0.026317315 -0.027940901
0000e0 0f 3f 0e 3c 78 82 02 3d 55 ec f9 bc e0 6f 0b 3d
       0.0086820265 0.031862706 -0.0305082 0.03404224
0000f0 88 1a 83 3d 69 74 42 3d fc 25 95 3c 3a 44 8a bc
       0.06401545 0.0474743 0.018206589 -0.016878236
000100 f8 55 f6 bc 00 fe 8b bc 88 c8 27 ba 40 f2 37 ba
       -0.03007029 -0.01708889 -0.0006400426 -0.0007016994
000110 fe ec ee bb e2 4b ed 3b 49 f6 3d 3d 58 bd 3d bd
       -0.0072914353 0.007241712 0.046377454 -0.04632315
000120 69 8b 86 ba 0d ff fb 3c df eb 38 3d e8 d2 ec bd
       -0.0010264936 0.030761266 0.04514682 -0.11563665
000130 a1 9b 28 bd dd 8e fe bb 22 50 1c bd 86 d1 df bc
       -0.041164044 -0.0077684955 -0.038162358 -0.027321588
000140 69 2b 5b bc 03 f5 ed 3c fa f9 87 3d 32 86 60 3d
       -0.013377049 0.029047495 0.06639476 0.05481548
000150 c5 f1 05 bd fa f4 f7 bc 1c b1 54 3d 77 00 2a bd
       -0.032701273 -0.030268181 0.051926717 -0.04150435
000160 55 51 89 bc 72 41 4a 3c 7b 17 a9 bc be 1e 56 bc
       -0.016762415 0.012344705 -0.02064108 -0.013068853
000170 c8 9e 17 3d 8a 27 ad bc 99 e9 b5 bd 00 ac fe bd
       0.03701666 -0.021137018 -0.08882446 -0.1243515
000180 31 96 a3 bc 9a c0 78 bd 03 22 a4 bd 91 a4 9a 3d
       -0.019969078 -0.060730554 -0.080143 0.0755092
000190 e3 ed 8f 3d a9 20 f0 bc 8c 0a d5 bb b1 54 67 3d
       0.07027795 -0.029312449 -0.0065015014 0.056477252
0001a0 1e 53 37 bd dc 68 42 bd 8a 7c b9 3c 54 36 11 3d
       -0.044757 -0.047463283 0.022642393 0.035452202
0001b0 7e 1a c4 3d 8d 43 12 3d d5 91 cd 3d 59 93 e3 bc
       0.095753655 0.035708953 0.10037581 -0.027780222
0001c0 a8 67 6b 3b 20 97 bd bc 23 09 20 bd c3 f0 66 3c
       0.0035919938 -0.023143351 -0.039071213 0.014095488
0001d0 7a 8e 8c bd 96 c7 aa 3d ce 23 cc 3d c9 3c 03 3e
       -0.06863113 0.08338849 0.09967767 0.12816156
0001e0 fe ff 55 bc 38 f5 2e bd f2 b6 03 3d 29 12 b7 3c
       -0.013061522 -0.042714328 0.032156892 0.022347527
0001f0 0a 56 10 3d 48 07 30 3c ea 47 1f 3c 0d f9 a9 3d
       0.035238303 0.0107439235 0.0097217355 0.08299456
000200 bc cc 00 3e cf ec af bd 8f 76 59 3b 03 2d 49 bd
       0.125781 -0.085900895 0.0033182239 -0.049115192
000210 85 3a 78 bd 95 6d 7f 3c b3 df 2e bc 99 18 e3 bd
       -0.060602684 0.015590091 -0.010673451 -0.11088676
000220 ac b0 a7 bb 9e f8 cc bd 3d cd f1 3c bc 57 ca bc
       -0.0051174965 -0.100083575 0.02951681 -0.024700038
000230 22 a7 38 3d c6 22 18 3e ba 85 c7 3d f6 59 70 3d
       0.045081265 0.14857015 0.09742303 0.058679543
000240 27 e4 20 3c 32 0d ba 3d 98 7b e1 3c 81 f2 47 bd
       0.009820021 0.09084548 0.027524754 -0.048815254
000250 9c b7 5b bc 5c 19 bd 3b 74 e8 ab 3c 9d 41 d5 bc
       -0.013410475 0.0057708453 0.020984866 -0.026032263
000260 11 a0 96 bc 4f 26 c7 bd 65 31 ac bd 12 e7 7e bd
       -0.018386872 -0.09724104 -0.08407859 -0.062232085
000270 af e4 5f 3d cc c8 73 3c 5f 8f 10 bd 76 3d 00 3e
       0.05466145 0.014879417 -0.03529298 0.12523445
000280 be 48 e2 3d 64 f8 b4 3d 5b 82 7c bd b5 d1 a3 ba
       0.11049031 0.08836439 -0.061647754 -0.0012498411
000290 11 28 25 bd e7 6e 83 bd 5b 9e b8 bd 94 df a4 bd
       -0.040321413 -0.06417637 -0.09014579 -0.08050457
0002a0 b3 6f be bd 1d e3 b3 bd b9 b2 87 bb 5e ff ff bb
       -0.09298649 -0.08783553 -0.0041411784 -0.0078124246
0002b0 9e 27 c3 3c f9 a2 ad 3c 67 10 02 be aa 32 e6 bd
       0.023822602 0.021195875 -0.1270157 -0.11240132
0002c0 1c d4 18 be a9 45 de bd 95 6f f3 bc cf 65 bb bd
       -0.14924663 -0.1085313 -0.029716292 -0.09150278
0002d0 52 e1 1a bd e0 e2 29 bc 08 3b a1 bd ec c4 93 bc
       -0.03781254 -0.010369033 -0.078725874 -0.018038236
0002e0 4d ea 56 bc 2d 59 d5 bd 5a ef f9 bb 4b b4 be bd
       -0.013117385 -0.104173996 -0.00762741 -0.09311732
0002f0 c4 52 bd bd 87 86 9e 3d 6c 1b 02 3d eb 57 2d 3d
       -0.09244302 0.07740503 0.031764433 0.042320173
000300 6d 96 19 bc 68 13 33 3c 2e 06 8a bc 64 5b 77 3b
       -0.009374243 0.01092992 -0.01684865 0.0037743682
000310 50 45 25 bc 48 63 3b 3d 73 cc e8 3c 46 63 b8 3b
       -0.010087326 0.04574898 0.028417801 0.0056270687
000320 c0 19 19 3d 85 7f 17 bd 52 37 1a 3d eb 57 22 bd
       0.037378073 -0.036986846 0.037650414 -0.039634626
000330 1a ac 5d bd 43 ee a2 3c ad 78 3d bd ba 35 07 bd
       -0.054119207 0.019889003 -0.046257664 -0.033010222
000340 82 21 03 be 5f 2a dc bb 3f 2d d9 3c bc f7 1a bc
       -0.12805751 -0.006718918 0.026510833 -0.009458479
000350 c7 1d 51 bb cc 95 94 3d fb cc 91 3d 59 92 87 3d
       -0.0031908618 0.07255134 0.07119175 0.066197105
000360 d2 27 a2 bd 2f 34 b9 bc 14 61 ad bd f7 75 39 bd
       -0.07917751 -0.02260789 -0.08465782 -0.045278516
000370 c4 ad 81 bd 6b 43 c7 3b 63 79 70 bd 2b 31 b8 bd
       -0.06331971 0.006081035 -0.058709513 -0.08993753
000380 f1 66 46 bd 95 4d 70 bd a3 2d 3f bd 57 0e a5 3c
       -0.048438016 -0.058667738 -0.046674382 0.02014844
000390 12 36 7a bd 26 d0 8b bc 06 af 9f bd 24 6e 9e bd
       -0.06108672 -0.017067026 -0.07797055 -0.077358514
0003a0 a2 14 91 bc af 8f 0b 3c 76 a5 68 bd 33 0f 8a bd
       -0.017710034 0.008518144 -0.05679842 -0.0674118
0003b0 78 82 7b bd 10 8a 55 3c 08 b6 28 3d 04 81 80 bb
       -0.06140372 0.013033405 0.041189224 -0.00392163
0003c0 c8 41 85 3d b7 63 c5 3d 33 23 20 3d 5e 67 13 bd
       0.065066874 0.0963816 0.03909607 -0.03598725
0003d0 56 a6 8f bd 59 c9 ae bd a9 7d 04 be c3 4f 9d bd
       -0.07014148 -0.08534498 -0.1293856 -0.07681229
0003e0 0b 7f 97 bd 9f 1e d6 bd 11 2b ae bd 68 ee c8 bd
       -0.073972784 -0.10455059 -0.08504308 -0.098110974
0003f0 91 d2 04 3d b3 7e c1 3d 2e f0 ac 3d b4 77 f1 3a
       0.032427374 0.09447994 0.08444248 0.0018422515

features.1.block.1.weight f4 [32]
000000 d1 2f 75 3f c5 4a 80 3f 8c e9 79 3f f4 da 86 3f
       0.9577609 1.0022818 0.9762199 1.0535569
000010 04 cf 86 3f c3 70 82 3f 4d 82 7b 3f 2b 5c 71 3f
       1.0531926 1.0190662 0.982457 0.9428126
000020 b2 14 6e 3f d7 69 84 3f d6 35 6e 3f 84 d8 7a 3f
       0.9300033 1.03448 0.930509 0.97986627
000030 e1 c3 7a 3f 98 cd 6f 3f 83 f7 83 3f 4b 8d 95 3f
       0.9795514 0.93673086 1.030991 1.1683744
000040 34 aa 82 3f 3e 6b 89 3f 72 5e 78 3f 05 75 7d 3f
       1.0208192 1.0735853 0.9701911 0.9900668
000050 84 30 96 3f 5e c9 6c 3f a3 d2 79 3f 41 dd 80 3f
       1.1733556 0.9249476 0.9758703 1.0067521
000060 f6 e6 7f 3f 8c b6 7b 3f 7b af 71 3f c0 73 7e 3f
       0.99961793 0.9832542 0.94408387 0.9939537
000070 2b 7d 76 3f 29 12 7d 3f 7e 78 7f 3f f8 89 77 3f
       0.9628474 0.98855835 0.9979323 0.966949

features.1.block.1.bias f4 [32]
000000 ee 3e f9 bd 21 79 a1 bd a8 89 05 3d fa d0 8d bd
       -0.12170206 -0.07884432 0.032601982 -0.06924625
000010 71 9c 6e bd c7 5b 8d bd 4b 6c 05 be ec d7 d3 bd
       -0.058254663 -0.06902271 -0.13029592 -0.10343918
000020 d6 d5 1f be 95 38 f1 bd 58 67 db bd 68 1e 0f be
       -0.15608916 -0.1177837 -0.10713071 -0.13976443
000030 58 90 c5 bd ca 81 04 be 9a f5 08 be ae ff 3d bc
       -0.09646672 -0.12940136 -0.1337494 -0.011596603
000040 c3 70 49 3d fe a3 3d 3d b5 f0 32 bd 3b 02 aa bd
       0.049179804 0.046298973 -0.043686587 -0.08301207
000050 a4 da b5 3d e0 31 13 be 83 20 11 be d4 35 05 be
       0.08879593 -0.14374495 -0.14172558 -0.13008815
000060 76 d2 0e be 91 d3 90 bd 15 c5 b8 bd 13 f0 cb bd
       -0.13947472 -0.07071603 -0.090219654 -0.099579
000070 47 f9 8b bd 70 2c d2 bd 8d df 0f be fd c4 9a 3b
       -0.06834655 -0.10262382 -0.14050122 0.00472319

features.1.block.1.running_mean f4 [32]
000000 e8 79 8e bf 18 18 16 c0 60 d0 e5 be ec b3 75 3f
       -1.1130953 -2.3452206 -0.4488554 0.95977664
000010 20 40 06 3e aa 16 41 be d1 f5 c0 3f b2 36 04 40
       0.13110399 -0.18856302 1.5075017 2.0658383
000020 b1 0f 8a 3e 44 e1 c5 bf 83 72 0e bf bd 87 5b c0
       0.26965097 -1.5459371 -0.5564348 -3.4301598
000030 c4 52 0b c0 4a b0 f2 3f ed a3 b5 bf 92 6c 09 c0
       -2.1769266 1.8960049 -1.4190651 -2.1472516
000040 6d 38 a3 be 89 d7 f4 bf bd ff 6f be 12 d4 85 3f
       -0.31878987 -1.9128276 -0.234374 1.0455344
000050 18 4e a0 bf 18 d2 f5 bf d3 fd cd be a6 f1 69 c0
       -1.2523832 -1.920474 -0.40232715 -3.655374
000060 ce 64 0f c0 86 ed cf be f4 a0 01 bf 6a 75 62 bf
       -2.2405276 -0.40610904 -0.5063622 -0.8846041
000070 d0 e4 41 bf 21 7d 51 c0 e1 3b cb 3e 32 06 1e 3f
       -0.75739765 -3.2732623 0.3969412 0.61728203

features.1.block.1.running_var f4 [32]
000000 f4 29 78 40 2a c0 6a 40 92 bf 70 3f c0 db 21 40
       3.8775606 3.6679788 0.94042313 2.5290375
000010 f5 7d d2 40 8f 55 8b 40 e7 04 32 40 28 e6 21 40
       6.5778756 4.354194 2.7815492 2.5296726
000020 c7 22 3d 40 b0 40 81 40 84 a1 b9 3f cc 5b 6f 40
       2.9552476 4.0391464 1.4502416 3.7399778
000030 4f a8 a5 40 ba c1 f6 3f b4 47 0d 40 73 1c 08 41
       5.1767955 1.9277871 2.2075014 8.506946
000040 2d 7f 3c 40 76 4b 94 40 d5 3c 8a 40 94 3f a5 3f
       2.9452622 4.6342115 4.319926 1.2910028
000050 f8 3e c0 40 0a f1 3c 40 f1 e4 84 40 f9 f0 9b 40
       6.0076866 2.9522119 4.152947 4.8731656
000060 23 21 a5 40 5b e4 5a 40 28 8f 25 40 af 14 26 40
       5.160295 3.4201877 2.5868626 2.5950124
000070 ee fe a7 3f 56 5a 89 40 bc 4d a2 40 78 e5 34 40
       1.3124673 4.2922773 5.071989 2.8265057

features.2.block.0.weight f4 [32, 32, 3, 3]
000000 db 56 4b bd d8 af ee bc 03 3b d0 3b 38 ac 71 b8
       -0.04964338 -0.029136583 0.006354691 -5.761927e-05
000010 28 9a ae bd 09 85 b6 38 fa 6e 0f bd 32 af a3 bd
       -0.08525497 8.703216e-05 -0.035017945 -0.079924
000020 c3 af 94 bc 80 6b 36 3c 07 5f c9 3c c3 d8 7f 3d
       -0.018150216 0.011134028 0.024581445 0.06246258
000030 ee e9 25 3c dd a8 12 bc 55 16 c7 bc 28 aa 91 3d
       0.010126574 -0.008951393 -0.02430264 0.07112533
000040 16 0a a5 3d 88 9c d5 3d 4b 45 40 3c cd 19 06 bc
       0.08058564 0.104302466 0.011735271 -0.008184862
000050 57 98 a0 bc 4d e4 e6 3b af ad 0d 3d 0d 6c f7 3c
       -0.019603891 0.0070462585 0.034589466 0.03020289
000060 8a 96 5e 3d 5b e1 bb 3d d7 70 19 3d e6 88 87 3d
       0.054342784 0.091738425 0.037461128 0.06617908
000070 0f e5 d5 3b 71 29 b7 3b 46 10 14 3d 0a 7d 4d bd
       0.00652755 0.005589657 0.036148332 -0.050168075
000080 82 dd a1 3b ed a5 48 bd 3f ee a1 bd b3 d1 b4 bc
       0.004939736 -0.048986364 -0.0790677 -0.022072649
000090 e8 eb 8b 3c 25 17 8b 3b e3 2d 60 bc 6b ba 99 bd
       0.017080262 0.0042447024 -0.013682815 -0.075062595
0000a0 ad 49 95 bd 9c 6d c1 3b 38 e9 66 bd e8 95 7d bd
       -0.07289443 0.005902959 -0.05637476 -0.06191054
0000b0 15 91 dd bc 39 a0 d4 3c dd b1 f7 3c c5 a3 4a 3c
       -0.02704672 0.025955306 0.030236179 0.012368147
0000c0 2b 07 8c bd 9b df af bc 79 3c a3 bc 16 41 87 3c
       -0.06837305 -0.021468928 -0.019926297 0.016510528
0000d0 c8 bd 24 3d c7 64 92 bc a2 7e 44 3c 1c d5 f2 bd
       0.040220052 -0.01787032 0.011993082 -0.11857054
0000e0 38 7b 88 bd 3e 7e 08 bd 6f f6 6b bd 35 d5 8e bd
       -0.06664127 -0.03332352 -0.057608064 -0.0697426
0000f0 5f c3 80 3d 53 37 fa bc 96 51 6e bd 46 49 16 bd
       0.06287264 -0.030543959 -0.058183275 -0.036690973
000100 1e 81 6e bc d0 4b 79 bd 55 16 f9 3c c0 87 f0 bd
       -0.014557151 -0.060863316 0.030406157 -0.11744642
000110 97 be 54 bc 83 4f 8e bc 29 d1 a2 bd 7b d7 7a 3c
       -0.012984893 -0.017371899 -0.079500504 0.015310164
000120 91 27 96 3c 18 01 f3 bc 62 f4 a3 bc ee 9a 7d 3b
       0.018329414 -0.029663607 -0.020013992 0.0038697082
000130 4d 6e 8a bc 02 bb e4 3b 68 6a c8 bd 9e d7 03 be
       -0.016898299 0.006980301 -0.097859204 -0.1287522
000140 84 13 e2 bc 60 3f 99 3c 33 ac 29 3d d6 63 5b 3d
       -0.027597196 0.018706977 0.041423988 0.053562008
000150 50 3f 93 bd f9 c1 90 bc 9e 9c c8 3b 16 f5 cf bd
       -0.0718981 -0.017670618 0.006122186 -0.10154168
000160 50 54 ba bd b4 b7 fb bc d9 65 63 3d 52 95 96 bd
       -0.090981126 -0.030727245 0.05551705 -0.07352699
000170 30 9b 16 bc 7a 68 c3 bb 49 07 02 bd 13 b1 ce 3b
       -0.009192273 -0.0059633823 -0.03174523 0.00630773
000180 1d bf 3e 3d 99 aa bc ba ac 14 b2 bc d9 c5 af bc
       0.04656898 -0.0014394104 -0.021738373 -0.021456646
000190 7a eb ee bc 2a 1f 33 bd 30 e6 fa 3c 56 a0 46 bc
       -0.029165018 -0.043730892 0.03062734 -0.012123188
0001a0 87 6b f9 3c 53 05 77 3c 95 2c b2 3b 32 f5 aa bc
       0.03044678 0.015076953 0.0054374435 -0.020868871
0001b0 f2 56 91 bd 6d 0c 5d bc 7a 66 c0 bc 3f 95 50 bd
       -0.070966616 -0.013491732 -0.023486365 -0.050923582
0001c0 b4 d7 b3 bd 26 ad 32 bd 11 1a 0d bc 0f 0d 31 bc
       -0.087813765 -0.04362216 -0.008612172 -0.010806336
0001d0 9a 48 5c bc db b0 1b 3d 33 95 91 bc 11 61 7a bc
       -0.013445044 0.03801046 -0.017771339 -0.0152819315
0001e0 06 7d cf 3b e5 9d 3c bd 24 03 e8 bc d3 38 94 bd
       0.0063320426 -0.046049017 -0.02832181 -0.07237401
0001f0 c8 e9 a6 bd a8 45 14 bd e8 b5 b2 bc 9f 43 bc bc
       -0.08150059 -0.036199242 -0.021815255 -0.022981463
000200 81 a4 9d bc 02 5e 78 3b 59 01 94 bd 49 07 28 bd
       -0.01924348 0.003789783 -0.072268195 -0.041022573
000210 10 99 5b bd a6 65 e2 bd 5a 32 a6 3c 11 74 87 3d
       -0.05361277 -0.11054544 0.020287681 0.06613935
000220 8d c0 9e 3b e8 45 af 3d 74 58 96 3c 7b 06 80 3d
       0.004844731 0.085582554 0.018352725 0.06251236
000230 41 cc cd 3d 87 4b cd 3c cf 19 d5 3d 39 80 87 3d
       0.10048724 0.025060428 0.10405313 0.066162534
000240 c4 bf 83 bd 6c a6 10 bd 20 18 e6 bc 82 a8 88 3c
       -0.06433061 -0.035314962 -0.028087676 0.016681913
000250 d1 5e 88 bc ff ef b6 bc df 85 89 3d b5 47 bc bc
       -0.016646774 -0.022331236 0.06714987 -0.022983411
000260 0a 9e 67 3c 18 27 70 3d c5 89 be 3c 29 59 de 3d
       0.014136801 0.058631033 0.023259053 0.1085685
000270 ee e1 3a bc f1 96 23 3d 01 84 84 3d 2e f1 a5 3d
       -0.011406405 0.03993887 0.0647049 0.08102642
000280 e1 47 10 3c 03 7b e5 3c e5 57 b0 bb 53 54 e4 3c
       0.0088062 0.028012758 -0.0053815716 0.02787224
000290 95 62 8c 3d 19 2d 3c bd 33 0d 23 bd 7c f9 21 bc
       0.068547405 -0.045941446 -0.03980751 -0.009886142
0002a0 fa 81 a7 3c 1e 99 fc 3c 1d fa ea 3c 7f 79 60 3d
       0.02044772 0.03083473 0.028683716 0.054803368
0002b0 61 c3 cf 3c 9e 5e a1 bc eb f7 49 bd c9 e9 50 bd
       0.025361719 -0.019698437 -0.0493087 -0.051004205
0002c0 e9 40 1e 3d 4d 3e 00 3c d5 c2 40 bd de 9a 87 bb
       0.038636122 0.007827354 -0.047060806 -0.0041383347
0002d0 b9 a2 b1 3d f8 dc 74 3d 51 d8 63 3d a6 40 b4 3b
       0.08673615 0.059781045 0.055626217 0.0055008708
0002e0 66 9f 2b 3d f4 87 dc 3d d0 70 cf 3a 0e 2a 0b 3e
       0.04190006 0.107681185 0.0015826467 0.13590261
0002f0 02 0f e2 3d 2d 64 ea ba e4 e9 93 bd 93 74 71 bd
       0.11038019 -0.0017882638 -0.072223455 -0.058949064
000300 21 94 34 3d 5c 32 d1 bd d2 0b 9d bd 4f dc 0b 3d
       0.04408658 -0.102146834 -0.0766827 0.03414565
000310 57 ae b8 bc f9 9f 32 bd 4c 5a 40 bd 6e 7e b4 3c
       -0.02254407 -0.043609593 -0.046961114 0.022032943
000320 4e eb a4 3c 3f fb 7b bd 91 38 08 bd 1e f4 f4 bc
       0.020131733 -0.061518904 -0.03325707 -0.02990156
000330 31 e8 67 bd c8 16 de bc 40 af 55 bd 07 bc bb 3c
       -0.05661792 -0.027110472 -0.052169085 0.022916807
000340 48 a1 c2 bc 45 da e7 bb 58 da ee bc b0 6e 90 bd
       -0.023758546 -0.0070755803 -0.029156849 -0.07052362
000350 79 c9 21 bd 53 09 1e 3c f8 98 4b bd 01 b9 ff 3c
       -0.03949878 0.009645778 -0.04970643 0.031216146
000360 5a 85 b9 bc e1 61 d7 bd b6 dd ff bc 26 65 ad bd
       -0.022646595 -0.10516716 -0.03123365 -0.08466558
000370 61 12 51 bd d5 d0 e5 bc a6 5a d5 3b 7f 48 28 bd
       -0.051042918 -0.02805368 0.0065110503 -0.041084763
000380 6a b9 35 bd c8 89 5e 3c 19 84 a3 bb e5 5e 0c bd
       -0.044366278 0.013582654 -0.0049901125 -0.034270186
000390 43 33 2e bd 4e d5 6a bd 41 8e 03 bc b7 59 2c 3b
       -0.042529356 -0.05733233 -0.008029521 0.0026298591
0003a0 b3 29 46 3d 90 3d 45 bc c3 5b 03 bd e3 3d 02 3b
       0.04837961 -0.012038603 -0.032069933 0.0019873313
0003b0 62 6b cb bb a4 f5 52 3d 47 f3 74 bc fd 5a 14 bc
       -0.0062078694 0.051503792 -0.01495058 -0.009054896
0003c0 9d 15 fb 3c 75 b0 24 bd b4 6c 02 bd 2a e2 da bb
       0.030649954 -0.040207345 -0.03184195 -0.006679793
0003d0 a8 0d bc 3c 61 e2 a3 bc 44 eb 2b bd ee 97 2e 3c
       0.02295573 -0.020005407 -0.041972414 0.01065634
0003e0 73 26 a3 bc 5e 29 4e 3d 81 5c 33 bd 17 34 c1 3c
       -0.019915795 0.05033242 -0.04378939 0.023584409
0003f0 38 89 17 3d b3 ed b9 bb c0 ab 59 bb 05 16 fb 3c
       0.036996096 -0.005674088 -0.0033213943 0.030650148

features.2.block.1.weight f4 [32]
000000 3b 89 83 3f 65 1c 6a 3f 29 d9 79 3f a9 85 71 3f
       1.0276254 0.91449577 0.97596985 0.94344574
000010 39 a0 89 3f c0 e3 7a 3f 6f 11 80 3f 47 50 81 3f
       1.0752021 0.9800377 1.000532 1.0102624
000020 cb 8d 75 3f 17 59 73 3f ba 4b 8c 3f 83 94 89 3f
       0.95919484 0.95057815 1.096061 1.0748447
000030 f1 8e 87 3f b9 49 7b 3f 02 16 7e 3f 0e 52 70 3f
       1.0590497 0.98159367 0.9925233 0.93875206
000040 a3 3e 8e 3f f5 4e 79 3f b0 76 81 3f f5 35 7a 3f
       1.1112865 0.97386104 1.0114346 0.9773858
000050 6e 25 7a 3f 20 4e 86 3f fd c6 7c 3f 32 88 87 3f
       0.97713363 1.0492592 0.9874113 1.0588439
000060 99 cd 6c 3f 23 e8 82 3f 08 72 85 3f f8 fb 75 3f
       0.9250122 1.0227093 1.0425425 0.960876
000070 ef c5 81 3f 26 d3 71 3f d4 aa 67 3f 3e 7c 76 3f
       1.013853 0.9446281 0.9049504 0.9628333

features.2.block.1.bias f4 [32]
000000 b4 cd 9a 3c a4 63 82 bd 21 88 af bd bd ba d3 bc
       0.018896915 -0.06366661 -0.085708864 -0.02584588
000010 9b 7a a7 3c d3 1b be bd c8 d4 3e bd 78 03 7d 3c
       0.020444205 -0.09282651 -0.046589643 0.015442722
000020 df 6a dc bd 28 97 8e bc 51 a8 0a 3d 79 f5 ad 3d
       -0.107625715 -0.017406061 0.033851925 0.08494086
000030 63 4a bb 3c b4 31 0c be 40 de d7 bc 20 5e 5f bd
       0.022862619 -0.13690835 -0.026351094 -0.054533124
000040 d1 14 98 3d bb 60 7e bd ef f8 ee 3c f3 68 59 bd
       0.074258454 -0.062103968 0.029171435 -0.053078603
000050 00 84 08 bd ba 2c 15 3d dd bc 9f bd b8 69 eb bc
       -0.03332901 0.036419608 -0.07799695 -0.028736934
000060 01 f8 e7 bc f9 79 85 bc ed 76 9d 3d 85 10 88 bd
       -0.0283165 -0.016293513 0.07688699 -0.06643776
000070 92 1d cf bb 20 84 e0 bd 73 de e0 bc 84 18 c0 bc
       -0.0063206637 -0.10962701 -0.027449822 -0.02344919

features.2.block.1.running_mean f4 [32]
000000 f3 2e 6e bf e7 40 64 bc f6 02 45 bf f1 01 0b 40
       -0.9304039 -0.01393149 -0.76957643 2.1719935
000010 2d 40 12 bf 6e c3 ca 3d 5c 4c 93 bf a9 14 69 3f
       -0.57129174 0.099005565 -1.1507678 0.9104715
000020 65 f9 5c 3f 17 55 48 3f 80 7f 0c c0 38 4e 4f c0
       0.86318046 0.78254837 -2.195282 -3.239149
000030 38 39 1f be 5f 96 2d 3f 68 34 a2 3f 5c fc 0a 40
       -0.15549171 0.67807573 1.2672243 2.1716528
000040 e3 45 df 3e 21 79 b1 3f 1e 10 f5 bf d5 ad 25 be
       0.43608007 1.3865091 -1.9145544 -0.16179593
000050 05 ce 93 bf 9a 0b ac 3f 81 1a 6b bf 59 ff ee be
       -1.1547247 1.344104 -0.91837317 -0.4667919
000060 32 8d b6 3d f6 40 7a 3f 99 cc 08 c0 0b a2 87 3f
       0.089136496 0.9775537 -2.1374876 1.0596327
000070 a7 81 ca 3f 77 68 b3 3f 01 47 9e 3f 70 69 a6 bf
       1.5820817 1.4016255 1.2365419 -1.3000927

features.2.block.1.running_var f4 [32]
000000 ba 3b 21 40 bb ec 92 3f 17 a9 b0 3f d0 dd c9 3f
       2.5192704 1.1478494 1.3801602 1.5770817
000010 60 49 34 40 da 7d 05 40 af ab ef 3f 1d e1 00 40
       2.8169785 2.0858064 1.8724269 2.0137398
000020 fc 56 7f 3f 11 ff e2 3f 50 c1 b5 3f 86 4f 07 40
       0.997421 1.773409 1.4199619 2.1142287
000030 6d 7f 18 40 52 b2 be 3f 54 48 06 40 4d 46 b5 3f
       2.3827775 1.4898169 2.0981646 1.4162079
000040 21 2f 2a 40 4c 6c d9 3f d6 ca eb 3f df df d8 3f
       2.6591265 1.6986175 1.8421276 1.694332
000050 a2 ee be 3f 72 f1 8c 3f 7f 8d 6d 3f 90 11 d5 3f
       1.4916575 1.1011183 0.9279403 1.6645985
000060 6d 30 ef 3f 53 0d 06 40 de bf 13 40 cf 72 90 3f
       1.8686653 2.0945632 2.3085856 1.1285037
000070 78 e2 23 40 3e 0a c2 3f 09 27 d0 3f 77 ff 9a 3f
       2.5606976 1.5159376 1.6261913 1.2109212

features.3.block.0.weight f4 [32, 32, 3, 3]
000000 6e 94 9b 3d b3 a2 e0 bb 1c 0c 48 3d 1f 4a e4 3c
       0.0759667 -0.0068553328 0.048839673 0.027867375
000010 a8 0e ac bc 77 55 8f ba 8a 49 98 bc fd 67 86 bd
       -0.021003082 -0.0010935505 -0.018589754 -0.06562803
000020 bc 08 36 3d 3c d0 72 bd 4c 67 86 bd 26 58 68 bd
       0.044441923 -0.05928062 -0.06562671 -0.05672469
000030 ca 5c 88 bd 18 79 9f bd 29 7c 3a bd 32 97 da ba
       -0.06658323 -0.07786769 -0.045528565 -0.001667714
000040 68 2d 6f bd 7e d5 02 bd 4d 7f 10 bd 96 14 2a 3d
       -0.058392912 -0.031941883 -0.035277653 0.04152354
000050 27 3c 48 bd 15 eb 19 bb c9 60 90 3c 74 bb 60 bd
       -0.04888549 -0.0023486067 0.017624276 -0.05486627
000060 08 e5 b9 3c 3e ec 6d 3d 33 d7 03 bc 78 95 24 bd
       0.022692218 0.058086626 -0.008046913 -0.040181607
000070 09 00 40 bc 82 37 92 3c 7c f8 0a bd f6 97 ad bc
       -0.011718758 0.017848734 -0.03392838 -0.021190625
000080 94 d5 8e bc f2 a2 e5 3c d5 7f 66 bd 70 16 dd 3b
       -0.017435826 0.0280318 -0.056274254 0.0067470595
000090 74 48 b7 3d 40 f8 e1 3c 16 95 aa 3d f7 c4 d5 3d
       0.08949366 0.027584195 0.08329217 0.10437959
0000a0 69 95 13 3d 61 f1 e7 3d 63 78 04 3d 3b 53 45 3d
       0.03603116 0.11325336 0.032341372 0.048175078
0000b0 c5 dc 80 3d 08 07 24 bd 8a bc 6b bd 42 d2 23 bd
       0.062921084 -0.040045768 -0.05755285 -0.03999544
0000c0 9e be 65 bd f6 7a 06 3d 43 55 d6 bc 42 98 20 bd
       -0.05608999 0.03283211 -0.026163703 -0.039207704
0000d0 7b 54 06 ba 33 45 1b 3c f9 33 96 3c 83 d6 d3 bc
       -0.0005124283 0.009476948 0.01833533 -0.025859123
0000e0 c2 8d 28 bc 23 22 9c bc b6 27 2c 3d df 97 aa bd
       -0.010287704 -0.019059246 0.04203006 -0.08329748
0000f0 2f cf 45 bd d0 3f 31 bd 24 66 9a 3c d6 3a 15 b8
       -0.04829329 -0.043273747 0.018847533 -3.5579164e-05
000100 b4 0e 1b bc 56 ae 0e 3c 1b e4 55 3c e3 23 59 bd
       -0.009463955 0.008708557 0.013054873 -0.05301274
000110 61 e5 b8 3c e6 19 35 3d b3 b6 f0 bc b5 f6 dd bb
       0.022570314 0.04421415 -0.029383993 -0.0067737945
000120 18 62 26 3c ff 7a 4a 3c 9f 68 0d bd fa af c9 bc
       0.010155223 0.012358426 -0.034523603 -0.024620045
000130 ba 60 b5 bc af b6 6b bc d6 3a 95 bb fc 11 f1 3c
       -0.02214085 -0.014386817 -0.004554133 0.02942752
000140 bd 82 02 bd 63 24 39 3c 34 a0 35 bd b7 bb 41 bd
       -0.031862963 0.011300179 -0.044342235 -0.04729816
000150 a5 4a 34 bd 9c 2c 4e bc cb c2 d4 3c 11 34 16 bd
       -0.0440165 -0.012583878 0.02597179 -0.03667075
000160 ef 72 a5 3c 75 4c 98 bc f5 85 b2 bc 3a fb 2e 3d
       0.020196406 -0.018591145 -0.021792391 0.042720057
000170 4c 5d 20 bc 54 3e 18 bd e5 a7 d6 3c d5 de a9 3c
       -0.009787869 -0.037168816 0.026203105 0.020736137
000180 96 86 c4 bc 1a 32 48 bc cb 90 29 bc 2d 36 03 3d
       -0.023989957 -0.012218976 -0.010349463 0.032034088
000190 4e d8 ae 3d 4d 4f f9 3d 1e 46 b5 bc a2 86 98 bd
       0.085373506 0.121733285 -0.022128161 -0.07447554
0001a0 d9 1b 32 3d a8 1e 0f 3d 17 0f f0 bc fd 62 f0 3c
       0.04348359 0.034941345 -0.02930407 0.029344076
0001b0 58 5a 78 bd fc 1c 92 bd 4a e5 b0 3c 72 88 82 bc
       -0.060633034 -0.071344346 0.021593709 -0.015934203
0001c0 f4 54 a5 3a 26 05 ca bc 02 a6 e3 3c 8a 74 6f 3d
       0.0012613819 -0.024660658 0.02778912 0.05846075
0001d0 a0 02 1b 3d f2 76 1f 3c d7 6c 23 3d ec a5 37 bd
       0.0378443 0.009732949 0.03989872 -0.04483597
0001e0 08 3c 9d bd 4f d0 b2 bc 47 9e 9a bd 0b d3 4b bd
       -0.07677466 -0.021827845 -0.0754972 -0.049761813
0001f0 38 f7 15 bd 57 77 54 3c c4 af 8a bd 56 63 26 bd
       -0.03661272 0.012967906 -0.06771806 -0.040622078
000200 43 20 4a 3c a3 06 bf 3c cb 13 19 bd f7 a3 95 bc
       0.012336793 0.023318594 -0.03737239 -0.018266661
000210 e4 44 e6 bc df bb e7 bc 3e 19 bf bb 62 20 b0 bc
       -0.028109021 -0.028287826 -0.0058318665 -0.021499816
000220 f3 c2 0a 3d 9d 4d a6 bc a5 cf 5e 3c 5b 49 ef 3b
       0.033877324 -0.02030068 0.013599311 0.007302446
000230 36 62 9c bd 85 5c 26 3b f4 ce 28 bc 61 82 6d 3b
       -0.0763592 0.0025384736 -0.010303248 0.0036241042
000240 ee 58 b1 3b 7a 68 25 3a 3f eb 45 3d 30 54 49 3b
       0.0054122126 0.0006309819 0.04832005 0.0030720346
000250 bd 86 d3 3c 9e fb f1 3c fd d3 90 bd ad 97 2b bd
       0.025821084 0.029538926 -0.070716836 -0.041892696
000260 d0 3c 6d 3b ae 01 80 3b ed d1 f3 3c 47 96 2c bd
       0.0036199577 0.0039064502 0.029763186 -0.042135503
000270 8f 9e 8a 3b ea 4c 9d 3c 0d b5 59 bc f1 49 02 bd
       0.0042303274 0.019201715 -0.013287795 -0.031808797
000280 3d 55 23 3d 23 da 3d bd d7 57 dd 3d 19 ee cb 3d
       0.03987621 -0.04635061 0.1080777 0.09957523
000290 d2 e4 85 3d 2a cd 71 3d e9 a4 bb 3c 52 a1 db 3c
       0.06537785 0.05903355 0.022905784 0.026810322
0002a0 7c 86 8d bc 82 2c 58 bc 43 0b 60 3c bf e3 94 3c
       -0.017276041 -0.013194205 0.01367456 0.018175004
0002b0 16 a4 39 3d ee 6a 5d bd e5 79 f6 3c db 21 95 bc
       0.0453225 -0.054057054 0.03008742 -0.01820462
0002c0 59 f6 7f 3b 01 43 76 bc bc 60 82 3d ef 0a 96 bd
       0.0039056747 -0.015030623 0.06366107 -0.07326304
0002d0 8f 95 86 3c c9 cb 4a 3c 32 c5 f6 bc 9b 24 44 bd
       0.016428737 0.012377688 -0.030123327 -0.047886472
0002e0 85 f0 e6 bc 49 38 75 3c 70 21 1c 3d 05 c6 ed 3c
       -0.02819086 0.014967033 0.038117826 0.029025087
0002f0 e0 12 8a bc 64 d4 85 3b 99 b2 df bb ae 30 55 bc
       -0.016854703 0.004084157 -0.0068267104 -0.013012094
000300 e9 01 1e 3d f4 65 a6 3b ec 79 d6 bb 31 dd 37 bd
       0.03857604 0.0050780717 -0.006545296 -0.04488868
000310 b2 f8 f3 3b e9 ad e8 bc c9 88 bc 3c b6 50 dc 3c
       0.0074454183 -0.02840324 0.023014443 0.026893955
000320 ca 0d 1b bb 69 cd 00 3c 15 66 e5 bc d4 e6 45 3c
       -0.0023659342 0.007861474 -0.028002778 0.0120789595
000330 9c aa 91 3c 71 37 20 bd a5 95 33 bd 37 6f 0e bd
       0.017781548 -0.039115373 -0.043843884 -0.03477403
000340 3d 38 55 bc 07 fb 91 bb dd 8e 19 bd 71 a3 6c bd
       -0.0130138965 -0.0044549736 -0.03748976 -0.057773057
000350 0d 45 37 bd 76 bc 62 3b df 03 01 3c d4 28 8c 3c
       -0.044743586 0.0034597195 0.007874458 0.017109312
000360 68 cd 3c bc 32 06 3d bd 6b 7a c5 bc 1d dd 05 bd
       -0.011523582 -0.046148486 -0.024106225 -0.032681573
000370 cc 3e 3e bd d9 ab 83 3c 6c fe d4 bc 46 90 66 3d
       -0.046446607 0.016073154 -0.026000224 0.056289934
000380 9b 6d 44 bd 6b a6 46 bd 2b 9d c1 3c e5 62 5a bd
       -0.04795609 -0.048498552 0.023634514 -0.05331697
000390 3f 80 35 bb 7d a6 62 bd 41 2a 41 3d 63 bf 18 bd
       -0.0027694849 -0.055334557 0.047159437 -0.037291896
0003a0 1e e5 19 bd 0e ae b9 bc e5 3d aa 3d 3c 69 90 3d
       -0.03757202 -0.022666004 0.08312587 0.07051322
0003b0 fb d0 cb 3d 27 80 95 3d 0f 1e 77 3d 79 a4 b9 3d
       0.09951969 0.07299834 0.0603314 0.09064574
0003c0 0b 21 17 3d 9e 94 3c 3d 97 70 1c 3c a7 e8 87 bc
       0.036896747 0.04604017 0.009548328 -0.01659043
0003d0 ef 76 01 3c ea e1 02 bc e8 b6 0e bd 67 ad 80 bd
       0.007901891 -0.007988432 -0.0348424 -0.06283074
0003e0 d7 a8 3c 3d df 42 c8 bc 6c 97 7e 3d 57 4a dc ba
       0.046059456 -0.02444595 0.062156126 -0.0016806823
0003f0 d5 48 62 bd 6e 65 2c bd c3 ba fd 3c a8 17 49 3c
       -0.05524524 -0.04208892 0.030972844 0.0122737065

features.3.block.1.weight f4 [32]
000000 c3 53 65 3f 63 e1 5d 3f f0 49 62 3f c5 f3 62 3f
       0.89580935 0.8667204 0.8839407 0.8865321
000010 96 b6 60 3f 10 89 64 3f f3 b2 61 3f 28 73 7c 3f
       0.87778604 0.8927164 0.8816368 0.98613214
000020 6d bc 70 3f ea 91 63 3f 6f dc 89 3f 92 92 74 3f
       0.94037515 0.8889452 1.0770396 0.9553615
000030 4b 05 81 3f 1d 7a 79 3f 58 aa 6a 3f a4 eb 93 3f
       1.007974 0.97451955 0.91666174 1.1556287
000040 4d c3 78 3f d2 18 5c 3f ca a0 6c 3f f7 85 61 3f
       0.97173005 0.8597537 0.92432845 0.8809504
000050 c5 a1 83 3f ee 04 61 3f 05 c0 82 3f f0 c9 6f 3f
       1.0283743 0.8789815 1.021485 0.9366751
000060 28 97 70 3f 39 6e 65 3f a3 48 85 3f 9a 85 6b 3f
       0.93980646 0.8962131 1.0412792 0.92000735
000070 98 84 6e 3f e0 ef 91 3f 5f ff 5e 3f 42 6e 61 3f
       0.9317107 1.1401329 0.87108415 0.88058865

features.3.block.1.bias f4 [32]
000000 be 3b 16 be 7b d6 34 be 1d 1d 1b be 3a 84 0e be
       -0.14671227 -0.17659943 -0.15147825 -0.13917628
000010 c0 14 2b be d2 5b 18 be c1 6d 25 be 53 16 2f bd
       -0.16707134 -0.14878777 -0.16155149 -0.0427459
000020 6b a7 7c bd 04 a9 05 be 82 27 c1 3d da 2b 95 bd
       -0.0616831 -0.13052756 0.09431364 -0.07283755
000030 fd 78 37 3c 0e b5 24 bd 1c 8c e5 bd f8 58 e9 3d
       0.011198279 -0.04021173 -0.11208364 0.113939226
000040 4c af b3 bc 89 93 36 be 70 bb cd bd 05 37 25 be
       -0.021934174 -0.17829718 -0.100455165 -0.1613427
000050 62 6b ce bc 02 63 1e be 3b d4 53 3b b2 fd 86 bd
       -0.025197688 -0.15467456 0.0032322544 -0.06591357
000060 00 04 7f bd bf c3 17 be 15 cd b7 bd 28 48 03 be
       -0.062259674 -0.14820765 -0.08974663 -0.12820494
000070 47 f4 c9 bd da c2 46 3e 41 92 12 be 4b ad 13 be
       -0.09861045 0.19410267 -0.14313604 -0.14421575

features.3.block.1.running_mean f4 [32]
000000 96 5e 26 bf 1c 72 5b bf db a2 e4 be 77 10 c9 bf
       -0.64988077 -0.8572099 -0.446555 -1.570815
000010 ae 62 8c 3e bd 02 05 bf e9 53 ef bf 21 0b c3 3d
       0.27419037 -0.51957303 -1.8697482 0.09523607
000020 1c 4b af be e1 1c ed bf 7f 89 a7 bf 8f f7 9a 3c
       -0.3423699 -1.8524438 -1.3088835 0.018916873
000030 2d a5 80 bf f6 8f 77 3e 63 d5 99 bf 53 f7 23 3f
       -1.0050408 0.2417601 -1.2018245 0.6404926
000040 0f 2d ac be cf 4b 8b bf f1 05 ec bf 65 97 12 bf
       -0.33628127 -1.088251 -1.8439313 -0.5726226
000050 ba 97 13 40 e9 74 d2 bf ba 65 2c 3f 77 56 88 be
       2.3061357 -1.6441928 0.6734272 -0.26628467
000060 0d b4 6c be ff e2 eb bf dc 18 c1 3e a7 8b 29 bf
       -0.23115559 -1.8428649 0.3771428 -0.6622872
000070 53 ac 85 bf 73 e0 f6 3e f8 12 03 c0 1e 68 95 bf
       -1.0443214 0.48218116 -2.0480328 -1.1672399

features.3.block.1.running_var f4 [32]
000000 c9 34 24 40 67 e4 c6 3f 9f 10 a3 3f 40 26 04 40
       2.5657218 1.5538453 1.2739447 2.0648346
000010 a3 8e 10 40 ab b4 de 3f 9a 1a e5 3f 26 ac 29 40
       2.2587059 1.7398885 1.7898743 2.651132
000020 2c a9 c7 3f 13 58 2a 40 42 90 2d 40 e1 aa af 40
       1.5598502 2.6616256 2.7119298 5.4896092
000030 4f f9 e9 3f 8b 0b 26 40 e9 14 cb 3f 80 fc ca 40
       1.8279208 2.5944545 1.5865756 6.3433228
000040 a1 93 7e 40 5b 3b 05 40 4b 4f 02 40 3c ba ff 3f
       3.9777606 2.0817478 2.0360897 1.9978709
000050 84 58 91 40 df 34 11 40 1f 9d 8d 40 2f 7b 15 40
       4.542055 2.268852 4.42543 2.3356435
000060 66 1d 94 40 d6 1d 01 40 3b a2 63 40 11 ef 26 40
       4.6285887 2.017446 3.5567768 2.6083415
000070 64 7d 08 40 4f 0c a0 40 22 8a 10 40 5b 68 17 40
       2.1326532 5.0015025 2.258431 2.3657444

head.2.weight f4 [5, 32]
000000 19 93 67 3e b6 c5 54 3d ec 4b 2c 3e 6b f1 ef 3d
       0.22614707 0.051946364 0.16825837 0.11715969
000010 07 1f 40 3b 9d 6e ff 3c 61 32 58 3d 38 9d 65 3e
       0.0029315369 0.031180674 0.05278242 0.22423255
000020 cf 6f 9a 3e f2 2c 35 3e 43 99 9d 3e cf 04 52 3e
       0.30163428 0.17692927 0.30780992 0.20509647
000030 55 e3 a2 3e d9 8e 2c 3e 5e f9 93 3e 32 37 af 3e
       0.31814066 0.16851367 0.2890119 0.34221798
000040 b6 b4 a2 3e 91 59 c1 3d 20 05 7c 3e 71 80 1c 3d
       0.31778497 0.094409116 0.2461133 0.03820843
000050 e9 6d b0 3e e1 56 22 3d 57 12 9c 3e 98 6a 18 3e
       0.34458855 0.039633635 0.30482742 0.14884412
000060 e3 e6 9f 3e 94 4b b7 3d 8a d0 62 3d a6 82 89 3e
       0.3123084 0.08949962 0.05537466 0.2685749
000070 22 6f 3a 3e f8 c0 a8 3e 97 fa 65 3e 8a e7 4b 3e
       0.18206456 0.32959723 0.22458874 0.19912544
000080 a9 84 84 3c 76 4a 82 3c ce c5 8d 3d f0 47 39 be
       0.016176539 0.015904646 0.06922494 -0.18093848
000090 46 6a 1d 3d 0e 8a 42 3d c2 42 80 be 9c 3b 01 be
       0.03843143 0.04749494 -0.25050932 -0.12620395
0000a0 1d d4 6c bc 13 0b 1c bd 76 65 3c be 3f 44 15 be
       -0.014454869 -0.0380965 -0.1839808 -0.14576815
0000b0 fe 86 8d bd 3f 1b cb bd 42 98 b0 3b e9 7f b2 bd
       -0.06910513 -0.09917306 0.0053892443 -0.08715803
0000c0 9f 81 2a be 63 60 76 3d 76 66 94 3d ef d1 f0 bd
       -0.16651009 0.060150515 0.072461054 -0.11758792
0000d0 0e 0b 97 bd b8 25 5c be c5 b0 4d be 18 a9 74 be
       -0.073751554 -0.21498764 -0.20086963 -0.23892629
0000e0 0e 5f d7 bd 95 f7 79 be c2 91 37 be a4 67 ca bc
       -0.10516177 -0.24410851 -0.17926696 -0.024707623
0000f0 9f ba ed bc 83 3e 3e be e8 bd 8e 3d 5f 5a e9 3b
       -0.029019652 -0.18578534 0.069698155 0.007121369
000100 90 bd 40 3d 34 90 aa bd 15 56 db bd 8a df 2e be
       0.04705578 -0.08328286 -0.10709778 -0.17077461
000110 ef 47 22 be db 23 25 be 5b ba 10 be e0 e5 32 be
       -0.15847753 -0.16126959 -0.14133589 -0.17470503
000120 7e c7 b8 3c a3 0f e0 bd 00 ef 92 3b ad af 33 be
       0.022556063 -0.109404825 0.0044840574 -0.17547484
000130 06 b2 39 3d e8 ef 7d be ff 06 36 be 9c 61 e2 bd
       0.045335792 -0.24798548 -0.17776106 -0.11053774
000140 18 31 d7 3c 25 e2 d1 bc 69 f3 9a 3d 97 94 c8 bd
       0.026268527 -0.02562053 0.07565958 -0.09793966
000150 a5 e6 43 bd ce 74 17 be ab 79 1c be 59 e5 65 be
       -0.04782738 -0.14790651 -0.15280788 -0.2245077
000160 66 d1 31 3d e6 31 49 be 8b bd 25 be 41 a1 e0 3c
       0.04341259 -0.19647941 -0.16185586 0.027420642
000170 f9 49 b9 bd 30 c1 48 be 14 f5 11 bd 9c d5 ad 3d
       -0.09047312 -0.19604945 -0.035634115 0.084880084
000180 3d ea 99 bc 3a 49 e3 bc ae 27 61 be 7c 37 f2 bd
       -0.018788451 -0.027744878 -0.21987793 -0.11826989
000190 45 ad fb bd bd 82 02 be df a3 7c 3d 0d e3 0e bd
       -0.12288908 -0.12745185 0.061679717 -0.0348845
0001a0 85 a1 20 be 5f 2e 13 be b6 e5 1e be ee 58 5b bd
       -0.15686615 -0.14373158 -0.15517315 -0.053551607
0001b0 55 6a 49 3a 47 f5 be bc 83 02 80 3d 93 0a 10 be
       0.0007683386 -0.023310317 0.06250479 -0.14066534
0001c0 66 f8 2d be d2 7e 05 3c a2 d3 68 be ff e1 10 be
       -0.16989288 0.008147912 -0.22736982 -0.1414871
0001d0 5c b3 77 bc 27 71 3c be 64 e2 14 bd 62 b2 39 be
       -0.015118446 -0.18402539 -0.036348715 -0.18134454
0001e0 28 d1 f9 bd b0 96 82 3d 83 90 17 be 43 43 7c bd
       -0.121980965 0.063763976 -0.1480122 -0.061587583
0001f0 74 67 4c bd e6 eb 93 bd a0 ac 4e bd 52 b9 33 be
       -0.049903348 -0.072227284 -0.050457597 -0.17551163
000200 98 df 8b bd dc d2 b0 bd 13 82 be 3d 60 28 0f bd
       -0.068297565 -0.08633968 0.093021534 -0.034950614
000210 11 16 26 be d1 8b f0 bd f4 15 3a bd 92 4e 36 be
       -0.16219355 -0.11745418 -0.045431092 -0.1780341
000220 b0 88 59 be 29 16 13 bc 5e 37 83 be 17 d7 eb bd
       -0.21243548 -0.008977451 -0.2562818 -0.115156345
000230 98 89 72 be 95 ef 38 be e9 59 ba 3d f2 39 0c be
       -0.236853 -0.18060143 0.0909918 -0.1369398
000240 71 0f 2c bd 9e 63 92 bd 1f 72 4c bc c8 f7 cb bd
       -0.042006914 -0.07147907 -0.01247838 -0.0995937
000250 b6 a7 9f bd f1 6f 8d bb 98 64 22 3c a4 77 c2 3b
       -0.0779566 -0.004316323 0.009911679 0.0059346724
000260 f8 ee b7 3c 21 70 83 bd cd 47 80 be 0f 44 01 3d
       0.022452816 -0.06417871 -0.2505478 0.031559046
000270 02 a1 09 be 03 e7 49 be 08 54 98 3d 2d e8 23 bc
       -0.13440326 -0.1971703 0.07437903 -0.0100040855

head.2.bias f4 [5]
000000 87 8e 51 3e 3b 9a 51 bc 60 30 b9 3c 0b a4 5c bd
       0.20464526 -0.012793119 0.022606075 -0.05386738
000010 3a 75 ab bd
       -0.083719686
