results/mnist_d2_f32_k3_do0.05_sgd_lr0.01_20251012_110306/best.pt (torch, 83965 bytes, 12 tensors)

features.0.block.0.weight f4 [32, 1, 3, 3]
00000000: 79ce cb3e 4b2e cc3c 5d82 8ebe 980c 323d
00000010: b014 3bbc 581e 8bbd 6fca 31be 906e 763d
00000020: 5ffe dc3e 5c68 a7be 8f6d 323e fcc7 4e3e
00000030: c9ec 843e 4ee6 b83d 7091 e93d 6091 a83d
00000040: d039 0a3e 10ba e43c 19de 9ebe 601b 0f3c
00000050: dc5e 0c3d 4f11 7abe 89ca 5a3e f83d 2d3e
00000060: ca75 88be e3b4 64be 21e6 0abe 296b 01bf
00000070: 02f3 52be 538d 97be 2842 dc3d 38b8 cd3b
00000080: 4912 2e3e 79f5 123e f49a 813d 546e 543e
00000090: 34a5 0f3e 6321 3a3e 4fa7 acbc 04c1 22be
000000a0: 6b97 adbd 05af 9bbe 798d 2e3e ac83 373e
000000b0: b26f 443e 4f68 133d 66c4 123e eee9 23bd
000000c0: e389 3b3e 1087 50bc 678b c3be 1162 ccbe
000000d0: 03a5 bfbe 2cf6 f03d 06e9 333e a294 f93d
000000e0: 14b5 023e 720c 44be 877b d43d 3703 87bd
000000f0: bb8b 8dbe 7fdb a7be 2268 07be 28b2 94be
00000100: 9df7 a0be af82 6fbe 43a9 543e ead8 023e
00000110: 6fcf cdbe f6d4 8a3d de29 353e afa4 b6bd
00000120: 766b e73e 1cfc 05be d802 febe 1a02 5bbe
00000130: f73d 23be a58a e83c 7d9f d73d 9735 303e
00000140: 6c6a 47bc f6bb bb3d d2fa 863d 4690 9c3e
00000150: 0bb8 863e 5df6 e4bd f499 da3d 7106 a8be
00000160: 83f6 43be 4ffd cb3d cf95 0b3d 4e86 58be
00000170: e6e7 82be fa3b e53d 12e4 c13b e0a4 63be
00000180: 1eee 8c3e 8f31 07be f050 bdbe a56b 8fbe
00000190: bb4d 2dbe 5ba9 bb3d 56e9 7fbd 820a 5fbe
000001a0: 8fb1 b63d c968 47be b426 90be 7884 77be
000001b0: 24b6 cbbe c9ec fdbd 656e b53e c6ec 36be
000001c0: 5251 e4bd 6057 83bd c15d 2fbe a3ce 30be
000001d0: aa9a 32be 3951 1fbe 6eb7 d2bd c620 79be
000001e0: 1662 c93c 3372 fabd 549a e3bc 0c6a 92be
000001f0: 8ec0 7ebe de5a 2cbe 3b53 bcbe b18f a4be
00000200: 93e0 c43c abed 5dbe 082e 9a3e 4fdf 7f3d
00000210: 15f5 b4be ae29 e43d 8b25 693c 2115 41be
00000220: 6cf7 8cbe 8df4 b2be f4aa f8bd 98d8 313e
00000230: 0660 983d 4315 95be 6f03 633e 1395 ccbd
00000240: 47a2 b4bd 9e41 9b3d caba 8c3e f8a1 923d
00000250: 266d d83d 51f3 a9be 18f5 a23e 4f06 8a3b
00000260: 2a46 63be 15b3 ebbe ec3a 683e 5390 70bb
00000270: 4bde 79be e35a 2b3e 0933 92bc e98c 90be
00000280: 9617 b13c 785e 643e 9da7 a7be 3e71 c3be
00000290: d6b2 a83e 4f6a 243c b0c6 a13d a03b 0a3e
000002a0: fc32 943e e5b5 d0bd 7832 b3be a3ad 9ebd
000002b0: fdc1 2dbd 136b d33b 1d36 82be 273d 76be
000002c0: 0924 5dbe 5fc8 96ba 20b1 c33e 9747 abbe
000002d0: 22fe 543e fdec 013e 37df dc3d e422 49be
000002e0: e015 cfbd 9e7a 803d 365a 0d3e 3229 e2bd
000002f0: 9e06 1c3e 5d38 d0bd 5021 22be aa9e a6be
00000300: fae7 af3e 89fe 973e 09af 3d3e 0c7b 2fbe
00000310: 99a9 24be 6b95 483d bda5 093e 8d95 8b3c
00000320: 400e b5be b664 cc3d 712b 4c3e efa9 7ebe
00000330: a8dd 70be b27f 83be eae0 8cbe 9fbe e4be
00000340: c1bf 2abe 753f 0d3d 0e9f 05be 16a1 4f3d
00000350: cd58 9b3d d6be a2be 3554 99be 4aca 473e
00000360: a381 80be 0fce ea3d 215e e03d 2998 a3be
00000370: 65ee 173e 9bdc 8d3d 3cdf 85be 057e 93be
00000380: a193 c6be 746f 5abe 7610 be3e 5721 01bd
00000390: 0dd3 c8be cce7 ddbe 1a10 f6be 36b4 04bc
000003a0: 9290 0a3e 5f50 b33c 8ccf 703d cd0e 933e
000003b0: 0d27 80be 0b42 ccbe f1e8 f1bd a1cf 5dbe
000003c0: 1431 233d 9905 9cbd 5964 2ebe b0df a4be
000003d0: c1bc 66be a277 4bbe 1f17 ba3d 4acc 343e
000003e0: 675a 81be c1f7 bc3d a28f 35bd 0fe7 8fbe
000003f0: bea6 c3be 3f3c 75be 65f5 8dbe 0925 78be
0.39805964 0.024924418 -0.27833834 0.04346904 -0.0114185065 -0.06792897 -0.17362379 0.060164034
0.4316282 -0.32696807 0.17424606 0.20193475 0.25961903 0.09028302 0.11404693 0.08230853
0.13498616 0.027920753 -0.31028822 0.008734554 0.034270152 -0.24420665 0.21366324 0.1691817
-0.26652366 -0.22334628 -0.1356435 -0.5055414 -0.20600513 -0.2960001 0.10754806 0.006278064
0.16999163 0.14351453 0.06328383 0.20745212 0.14027864 0.18176799 -0.021075873 -0.15893942
-0.08476146 -0.30406967 0.17046155 0.17921323 0.19183233 0.03598815 0.14332733 -0.040018015
0.18314318 -0.012727514 -0.38192293 -0.3991857 -0.3743058 0.117657036 0.1756936 0.121865526
0.12764388 -0.19145373 0.103751235 -0.0659241 -0.27645668 -0.3278465 -0.13223317 -0.29042172
-0.31438914 -0.23389696 0.20767693 0.12778059 -0.40197322 0.067789 0.17691752 -0.0891813
0.45199174 -0.13084453 -0.49611545 -0.2138752 -0.15941606 0.028386423 0.10528467 0.17207943
-0.012171369 0.0916671 0.06590809 0.30578822 0.2631229 -0.111798026 0.106738955 -0.32817414
-0.19137006 0.09960424 0.034078415 -0.21144983 -0.2556755 0.1119308 0.0059170807 -0.22230864
0.2752542 -0.13202499 -0.36975813 -0.28011814 -0.16924183 0.09163161 -0.062478386 -0.21781352
0.08920585 -0.19473566 -0.28154528 -0.24171627 -0.397874 -0.12398679 0.35435787 -0.1786376
-0.11148323 -0.0641315 -0.17125608 -0.17266326 -0.17441812 -0.15558328 -0.10288893 -0.24328908
0.024582904 -0.12228813 -0.02778355 -0.28596532 -0.24878141 -0.16831538 -0.3678225 -0.32140878
0.024032867 -0.21672694 0.30113244 0.062468823 -0.35343233 0.11140762 0.014230142 -0.18855716
-0.27532518 -0.34952202 -0.12141982 0.1736778 0.0744019 -0.29117784 0.22169279 -0.09989371
-0.088200144 0.07580875 0.2748626 0.07159799 0.105676934 -0.33193448 0.31827617 0.004212178
-0.22194734 -0.46035066 0.22678727 -0.0036707118 -0.24401204 0.1673389 -0.017846601 -0.28232506
0.021617692 0.22301662 -0.32745066 -0.38172334 0.3294894 0.010035112 0.07899225 0.13499308
0.28945148 -0.10190944 -0.34999442 -0.07747962 -0.04242133 0.006451973 -0.2543191 -0.24046765
-0.21595778 -0.0011503807 0.38221073 -0.33453056 0.20800069 0.1268806 0.10784762 -0.19642216
-0.10111594 0.06273387 0.13803944 -0.11043014 0.152369 -0.101670004 -0.1583302 -0.32542926
0.34356672 0.29686382 0.18523802 -0.17136782 -0.16080321 0.04897062 0.1344213 0.017039085
-0.35362434 0.099801466 0.19938447 -0.24869512 -0.23522055 -0.2568336 -0.27515346 -0.44676682
-0.16674711 0.034484345 -0.13048956 0.050690733 0.07585297 -0.3178622 -0.29947057 0.19510761
-0.25098905 0.11465084 0.10955454 -0.31952026 0.14837034 0.06926843 -0.26146877 -0.28807083
-0.38784507 -0.21331578 0.37121934 -0.031525936 -0.3922352 -0.4334091 -0.4805916 -0.008099606
0.13531712 0.02188891 0.058791682 0.2872223 -0.25029793 -0.39894137 -0.11812008 -0.21661235
0.039841726 -0.07618255 -0.17030467 -0.3220191 -0.22532941 -0.19869855 0.09086441 0.17656055
-0.25264284 0.09226943 -0.044326432 -0.2810597 -0.38213152 -0.23948763 -0.27726284 -0.24232878

features.0.block.1.weight f4 [32]
00000000: 2b18 ca3e fbe8 843e 625b 853f 9657 f63e
00000010: 15dc 9b3e 790b 5d3f e2bf 063f 6ab8 693f
00000020: 0c94 be3e e3cf ca3e 9600 7d3f 4164 5d3f
00000030: 24f5 8b3f 44c6 653f fc57 733f 2cd0 683f
00000040: 6665 cc3e 6ed1 163f 99ab d43e bb6e 833f
00000050: c1ad 4f3e 138f af3e c831 a33f 3aa4 963f
00000060: afdb a53f f832 a13f d1b6 853f 4f32 9a3f
00000070: d880 7e3f cf04 fd3e a8c8 923e e3a1 833f
0.39471564 0.25959 1.0418513 0.48113698 0.30441347 0.8634563 0.5263654 0.9129702
0.37222326 0.3961173 0.9882902 0.864811 1.0934186 0.89755654 0.9505613 0.90942645
0.3992111 0.58913314 0.4153717 1.0268167 0.20281126 0.34288844 1.2749567 1.1768868
1.2957667 1.259368 1.0446416 1.2046603 0.9941535 0.4941773 0.28668714 1.0283779

features.0.block.1.bias f4 [32]
00000000: 28e7 85bf 3720 65be 48e7 cdbe 4ca8 4abe
00000010: 1c36 00bf 4e81 c2be 69b4 32be f7af e0be
00000020: f1af acbd 13d8 2dbf b6a4 efbe 5e37 2dbe
00000030: 6dbf 0ebf 09ce 1bbe 3cb3 09bf bbef 93be
00000040: 470d 20bf c406 cebe 3fc1 17be 8ca4 0bbf
00000050: 4cf9 12be c7ef dbbe 11cd 1dbf 7fce 13bf
00000060: 92fa 37bf 4a2a 37bf b790 12bf daf6 05bf
00000070: 6513 edbe d3b4 2ebf e237 09bf 18af e4be
-1.0461168 -0.2237557 -0.40215516 -0.19790763 -0.50082564 -0.37989277 -0.17451634 -0.4388425
-0.08431996 -0.6790783 -0.46805352 -0.16915652 -0.5576084 -0.15215315 -0.53789115 -0.28893837
-0.6252026 -0.40239537 -0.14819811 -0.54547954 -0.14352912 -0.42956373 -0.6164103 -0.57736963
-0.71866715 -0.71548903 -0.5725207 -0.5232979 -0.4630386 -0.68244666 -0.53600895 -0.44664836

features.0.block.1.running_mean f4 [32]
00000000: 5b76 223c 7170 bb3b 38f6 a9bc b2f5 1bbc
00000010: 1185 3e3c f890 34bc a1b6 fdbb bdca 8abc
00000020: 113d cc39 8e16 e33b aa67 49bc 1437 95bc
00000030: b434 67bc 8d00 c1bc 6ffe b1bc e8b1 c9bc
00000040: 9013 8c3b a8a2 5bbc bc24 b0bb da4f 2abc
00000050: ada4 6b3c f10f 4dbc 9b96 babc 8f3c 93bc
00000060: 816e c6bc b593 ecbb 6234 2fbc a0de b1bc
00000070: db9c 8ebc c60e 6bbc acad ab3b fe34 a4bc
0.009915913 0.005720191 -0.020747289 -0.009519028 0.011628405 -0.011020891 -0.0077427183 -0.016942376
0.0003895541 0.006930179 -0.012292782 -0.01821474 -0.0141116865 -0.023559833 -0.021727769 -0.024620965
0.004274793 -0.0134054795 -0.005375473 -0.010395015 0.0143825235 -0.012516008 -0.022776892 -0.017973213
-0.024222614 -0.0072197565 -0.010693641 -0.021712601 -0.017408779 -0.014346784 0.005239209 -0.0200448

features.0.block.1.running_var f4 [32]
00000000: 5eee 563e 1884 ff3e bd45 ee3e 4a0f e23e
00000010: 23da db3d ab9d 0d3f 73dd be3e 2545 0a3f
00000020: 51ba 8a3e 9c18 5b3e b950 273f e3e4 8b3f
00000030: 1cd3 543f e537 913f 1689 143f 7420 0b3f
00000040: cca0 3a3e d196 aa3e 7043 533e be89 ed3e
00000050: c900 db3d 5b83 b63d fa9b 423f 969b 5d3f
00000060: d59e 543f f68d 613f 61ec 073f 1c9f 183f
00000070: d9c7 403f 1517 513e 0398 e13d 2ae6 3a3f
0.20989367 0.49905467 0.4653758 0.4415229 0.10734966 0.5531871 0.37278327 0.54011756
0.27095273 0.21396106 0.6535755 1.0929226 0.8313463 1.1345183 0.58021677 0.54346395
0.18225402 0.3331819 0.20631194 0.4639415 0.10693509 0.08911773 0.7601925 0.8656553
0.8305486 0.8810724 0.5309506 0.5961778 0.75304943 0.20418961 0.11015322 0.7300745

features.1.block.0.weight f4 [64, 32, 3, 3]
00000000: a7d7 303d 47b8 b73c b193 8f3b 8fe4 0cbd
00000010: f317 8bbd 0a2d 2dbd 2d11 8abc cd05 cdbc
00000020: 9032 b23c 3d4a f63b 8105 853c 8736 df3c
00000030: 9918 c2bd 6d8c 67bd b488 aebd 3832 803c
00000040: c5a1 f0bc cdc0 1c3c e872 10bd 38cf f4bc
00000050: 898b b1bb bf26 3a3d be4c 193d a7a6 1d3d
00000060: e636 aebd 2b85 7bbd d968 9d3c 6a62 17bc
00000070: b326 1e3d 916d 103d 4713 6fbd 8ab0 ab3b
00000080: 680b 57bd 3455 393d 19b2 f43c a8c9 253d
00000090: 9d79 02bc 54f1 d5ba da64 aebc aa19 81bd
000000a0: 07b6 78bd 0bc9 c93a 71d1 163d dee2 053d
000000b0: c983 c63b 9511 00bd 9997 453c 1394 a3bd
000000c0: ed21 24bd d52a ebbb 2e78 483d ead5 a03d
000000d0: 1157 b53b 3a04 3fbd 2977 a9bd cf88 3ebd
000000e0: e8cc 86bd 00e2 673d 7781 223c 27a1 8c3c
000000f0: 8793 89bc 69b8 fabb 0de5 953b cf4f 683d
00000100: 7e59 853c 2860 c6bc 6dd6 25bd dbed 723b
00000110: 96c0 d23c df10 8c3b 8742 a43d 71ed dd3d
00000120: 26f9 f6bb 55f9 bb3b 0822 03bc 950f 003d
00000130: af44 0e3d d017 ae3c a560 01bd a7c3 90bc
00000140: 84f2 50bd fee6 193d c8dc cf3c 20e3 683d
00000150: a914 0abd 96bf 45bd 57a6 50bd 7f67 82ba
00000160: e608 1e3b d424 1b3d 8866 133d fea5 f03c
00000170: f9b0 f43c 9b22 96bd d4b4 86bd fd85 cebc
00000180: 09b4 8b3c 5798 463d b447 ec3c 1b32 20bd
00000190: 9b07 c8bc 89a9 c4bc 79ca af3d b2d6 31bc
000001a0: 7028 ae3d b625 75bd 9b8f f6bd dddb d0bd
000001b0: 0e4d d03b 2278 f4bb 5295 d5bc c6ed 183d
000001c0: c032 093c 540a de3c 8389 bcbc 5763 46bd
000001d0: c42d 25bd 2d65 51bd abd5 cdbd c708 24bd
000001e0: bace 8c3d c25d 833c ff7e 693d a080 e6bd
000001f0: d316 c4bd 14bc 92bd c6aa ac3c d5ea 0fbc
00000200: 28d1 6fbc 647a 7f3b 3aad cb3c 9885 2f3d
00000210: 31fb 6ebd 7037 43bd 5e4c 4ebc 1e3d 09ba
00000220: 14e6 d2bc e436 a4bc cc0e 373d b235 34bd
00000230: 032f 233d 4dc6 37bd 5c54 abbd ae83 85bd
00000240: 536f 9c3c 2755 083d 756e 07bc f42b 8cbd
00000250: 0093 aebd 4c61 d3bc f7ad 283d f1aa 7e3c
00000260: 3228 3ebc a693 5f3b 8f22 7d3c ebab 653c
00000270: e511 3dbd 9c43 7fbd ac47 93bd 30bd 003d
00000280: 62cb 9c3c 9fbd 183d 7488 b7bb cf75 f23c
00000290: 9e72 abbb e777 7fbc bc8c aebb c337 c5bb
000002a0: 00f2 c83c b415 683c 4902 0bbd 596b 873a
000002b0: a73f 97bc 67dd 2abc 4c1b 803d ab55 2abc
000002c0: 62d9 b73d bfd7 2fbc db89 2cbd 79c2 dd3c
000002d0: 7b36 153d b734 3c3d 665c cf3d ae3b 8dbb
000002e0: 193b c1bc 9c49 57bd 0b9c ccbd ce4e 89bd
000002f0: 0245 8cbd 95fe 27bd 8a18 953b 178e 10bc
00000300: dc69 21bd 5519 8ebc 83d4 12bd 4616 79bc
00000310: a18f 30bd 05ba 793d 7a34 093c bb30 103c
00000320: e95a 71bb 0608 833c 4f98 0e3c 3c50 b03c
00000330: c886 953c d8d4 68bd 48d7 5cbd 5cae ec3c
00000340: 3630 2e3d 7c85 fe3c 8c12 79bd dcc3 6cbd
00000350: 5860 b0bd bd5e 693b acc0 01ba 4986 423d
00000360: ce59 253d d7e4 7239 5b39 4ebc fba0 8e3b
00000370: 29f6 c13c 064e 34bd 7849 003d 42a0 233b
00000380: 05fb 7b3d 55e3 3dbd 174b 5bbc 7f76 32bd
00000390: 6caf da3d dbb8 81bd 7720 063e 8376 423d
000003a0: 8a14 653d ceab 623d f081 b8bd 43f5 15bd
000003b0: 5cdc 61bd a986 0c3d cb4e 793d 1b07 a73d
000003c0: 34ed 37bc af55 81ba e713 603c c126 8bbc
000003d0: e765 84bd 7f53 edbb 18f9 8d3d 6ad2 9fbc
000003e0: aab9 42bc 2468 1c3c 7cb8 4fbd 8e9a c23c
000003f0: 0f88 d8bc 4fb7 253d 0fea bb3c 7e60 f43b
0.043174412 0.022426737 0.00438162 -0.034397658 -0.06791677 -0.04227928 -0.016853893 -0.02502718
0.021752626 0.007516174 0.016237976 0.02724768 -0.09477348 -0.056530405 -0.08522168 0.015648946
-0.029374013 0.009567452 -0.035265833 -0.029883966 -0.005418245 0.045447107 0.037426703 0.03848901
-0.08506565 -0.061406296 0.019215034 -0.009239772 0.038611125 0.03526074 -0.058367994 0.005239551
-0.052501112 0.04524727 0.02987008 0.040475518 -0.007963565 -0.0016322532 -0.021288324 -0.06303723
-0.06072047 0.0015394998 0.036820833 0.03268706 0.0060581905 -0.031266768 0.0120600695 -0.07987227
-0.040071417 -0.007176737 0.048942737 0.07853301 0.0055340608 -0.04663489 -0.08274681 -0.04651719
-0.065820515 0.056612015 0.009918562 0.017166687 -0.01679398 -0.007651378 0.004574424 0.056716736
0.016278025 -0.024215773 -0.040487695 0.0037068042 0.025726598 0.004274472 0.080205016 0.10836304
-0.007537025 0.00573651 -0.008003719 0.03126486 0.03473347 0.021251589 -0.031586308 -0.01767142
-0.05101253 0.037573807 0.025373831 0.05685723 -0.03371111 -0.048278414 -0.050939884 -0.0009949057
0.002411419 0.03787692 0.035986453 0.029376026 0.029869543 -0.07330819 -0.06577459 -0.025210375
0.01705362 0.048485126 0.028842784 -0.039110284 -0.02441769 -0.024006622 0.085835405 -0.01085441
0.085038066 -0.059850417 -0.12039109 -0.101981856 0.006356842 -0.00746061 -0.026072178 0.037336133
0.008373916 0.027104534 -0.02301479 -0.04843458 -0.04032685 -0.05112188 -0.100505196 -0.040047433
0.068753675 0.016035918 0.05700588 -0.11255002 -0.09574666 -0.07164779 0.021077525 -0.008784016
-0.014637269 0.0038982863 0.024862874 0.042852014 -0.058345024 -0.04766029 -0.01259145 -0.00052352424
-0.025744475 -0.020045705 0.044691846 -0.04399652 0.039839756 -0.04486685 -0.083657 -0.065192565
0.019096052 0.033284333 -0.008266081 -0.06844321 -0.08524132 -0.02580323 0.04118153 0.015543685
-0.011606263 0.0034115105 0.015450134 0.014018039 -0.046159644 -0.062320337 -0.07191405 0.031430423
0.01913995 0.03729021 -0.0056009833 0.029597191 -0.0052321693 -0.015592552 -0.0053268354 -0.00601861
0.024529457 0.014165331 -0.033937726 0.0010331675 -0.018462969 -0.010428763 0.062552065 -0.010396401
0.08977009 -0.01073259 -0.042123657 0.02707027 0.03642891 0.04594871 0.101250455 -0.004310093
-0.02358775 -0.052560434 -0.099907 -0.06704484 -0.068491 -0.041014273 0.0045500444 -0.008822939
-0.039407596 -0.017346064 -0.0358472 -0.015203064 -0.043105725 0.060968418 0.008374328 0.008800681
-0.0036827868 0.015995037 0.008703305 0.021522634 0.018252745 -0.05684361 -0.053916246 0.028891735
0.042526446 0.03106951 -0.060808703 -0.057803974 -0.08612126 0.0035609447 -0.000494967 0.047491346
0.040368848 0.00023164168 -0.012586917 0.0043526865 0.023676949 -0.04401972 0.031320065 0.0024967347
0.061518688 -0.04635938 -0.013384602 -0.043570038 0.1067799 -0.063340865 0.13098322 0.047476303
0.05592779 0.055339627 -0.090091586 -0.036610853 -0.05514179 0.03430811 0.06086616 0.08155652
-0.011225987 -0.0009867455 0.01367662 -0.016986253 -0.06464749 -0.0072426195 0.069322765 -0.019509513
-0.011885086 0.009546313 -0.050713047 0.023755338 -0.026432065 0.04045802 0.022938756 0.007457792

features.1.block.1.weight f4 [64]
00000000: a660 c63f 94c6 f03f 5918 0d40 4e0e fb3f
00000010: 15c7 de3f 1ac2 ec3f b13b f63f b3a6 d73f
00000020: c6f6 0940 48c6 c73f 402d cf3f 746b ea3f
00000030: 3c0c f53f 889a e03f ef75 c93f 3342 ff3f
00000040: 85a7 e53f bd3a e83f 4ec1 df3f 58c0 bc3f
00000050: f26b fb3f d2d0 d83f 676e 0640 e669 f63f
00000060: c9ad fe3f ec70 d33f 8486 ec3f cee8 ff3f
00000070: 33ac fc3f 4282 ec3f f8c7 f83f fcb5 c63f
00000080: 8321 e13f 9f23 d33f acc2 1040 6366 0f40
00000090: 19c6 0440 3d15 e43f 0139 0f40 bcd6 0f40
000000a0: db54 f53f 2ac4 c33f ad08 fb3f 2a1b 0540
000000b0: 0c39 cc3f 3353 f13f cd23 cf3f a715 f13f
000000c0: 7ddd ef3f e522 1440 95d3 d53f 7205 d43f
000000d0: afe7 e73f e26b e83f f158 0240 3316 0b40
000000e0: e562 b93f fbfc 0140 4821 ef3f 321a c23f
000000f0: 5edd ed3f 146f e73f a401 d43f 2a8c db3f
1.5498245 1.8810601 2.204611 1.961374 1.7404505 1.8496735 1.9236966 1.6847748
2.1556869 1.5607386 1.6185684 1.8314042 1.9144359 1.7547159 1.5739115 1.9942077
1.7941748 1.8142926 1.7480867 1.4746199 1.9642317 1.6938727 2.1004884 1.9251068
1.9896785 1.6518836 1.8478551 1.9992921 1.9740051 1.8477252 1.9436026 1.5524287
1.7588352 1.6495246 2.2618818 2.2406242 2.074591 1.7818981 2.2378542 2.2474813
1.9166521 1.529424 1.9612023 2.079783 1.5954909 1.8853515 1.61828 1.8834733
1.8739468 2.3146298 1.6705195 1.6564162 1.8117579 1.8157923 2.0366786 2.17323
1.4483305 2.0310657 1.8682032 1.5164244 1.8583181 1.8080773 1.6563001 1.715215

features.1.block.1.bias f4 [64]
00000000: ca17 78be 2ab4 1cbf 4350 30bf cf4b 3abf
00000010: d65a 40be 0ca9 ecbe 2c9c 12bf 8536 f6be
00000020: af60 c7be 8f5b 8bbe c388 543a 081e 05bf
00000030: 7d04 0dbf 1235 13bf 8cae ca3b 93c2 dfbe
00000040: 59ed 00bf 555d d1be e842 cfbe 80ca 82be
00000050: b5ba 1fbf 6b6d d4be 866e 65bf 245c 1cbf
00000060: ad0a 36bf d900 06bf d967 1fbf fa78 3bbf
00000070: 3f1f c3be 70da 47bf 98d1 38bf 2e26 05bd
00000080: cc43 a2be ed3f 383c 6731 54bf ce5d 77bf
00000090: d469 81bf ec05 6fbd 6ac4 45bf 8292 97bf
000000a0: 3dfa 47bf 0d0d 2fbe 168d 01bf f645 f8be
000000b0: 2eb2 a8be d127 cdbe 792d 45be 912d e7be
000000c0: 6957 e3be b292 40bf 12c0 94be 983c 7dbe
000000d0: b26e f1be 249c abbe e134 0ebf 8ac9 2fbf
000000e0: 45b5 f53d 86e7 0bbf 80e0 00bf 837b ee3c
000000f0: af08 81be 26b2 f6be c958 adbe a304 00be
-0.24227825 -0.6121241 -0.6887247 -0.72771925 -0.18784651 -0.46222723 -0.5726955 -0.4808847
-0.3894095 -0.2721829 0.0008107537 -0.5199895 -0.55084974 -0.57502854 0.0061853584 -0.43703136
-0.50362164 -0.4089152 -0.40480733 -0.2554512 -0.6239427 -0.4148973 -0.8962177 -0.61078095
-0.7111004 -0.52345043 -0.62267834 -0.7323147 -0.38109776 -0.78067684 -0.72194815 -0.032507114
-0.3169235 0.01124571 -0.8288788 -0.9662751 -1.0110421 -0.058355257 -0.7725283 -1.1841586
-0.7811621 -0.17094822 -0.50605905 -0.48490876 -0.3294844 -0.4006944 -0.19255628 -0.45151952
-0.44402626 -0.7522384 -0.29052788 -0.24730146 -0.47154766 -0.33517563 -0.55549437 -0.686669
0.11997465 -0.5465015 -0.5034256 0.02911163 -0.25201938 -0.4818279 -0.338568 -0.12501769

features.1.block.1.running_mean f4 [64]
00000000: f4bf 6cbe 63fe 313d bc17 37bd 1441 573d
00000010: 49fd 19bd 39f4 bdbc fc65 7abd 832d 4f3c
00000020: fd76 58bd df7b 763b be10 44be b373 03bb
00000030: 1454 4dbd 2301 58bd 9c71 9dbd 2e4f bebd
00000040: b701 42bd 3658 813c 5f63 73bd 11ba c0bd
00000050: def9 9bba 18c5 0f3d 6aaf 56bd 4a6b 40bd
00000060: 96e9 ce3c 950b 21bd 5a69 7bbd 8712 823b
00000070: 133f afbd a4c8 58bd 592c 9b3b e6d9 38bd
00000080: d7a1 2dbd 1eff f3bd a22c 2abd 5d7d dfbd
00000090: 3cef 98bd 2459 1cbe 6d98 123d 6a2c d43d
000000a0: 47f3 1abd 222a d6bd 7b0e 6ebc 5795 15bd
000000b0: 9bb8 92bc 78cd ff3c 625b 523d 2ba8 e1bc
000000c0: 64ab 113d 4ef5 f43c e5f6 cfbc 069c ed3c
000000d0: 00b4 49bd 5fad 1dbd 0a9b 53bc 9cc0 3ebd
000000e0: eda8 54bd 27ca 6e3b 2e84 273d edc8 caba
000000f0: eb70 07bc 3374 0abd 5221 d63c 5e92 14be
-0.231201 0.043455493 -0.04470037 0.052552298 -0.037595067 -0.023187743 -0.061132416 0.012645128
-0.05284785 0.0037610454 -0.19147012 -0.0020057976 -0.05012901 -0.05273546 -0.07687685 -0.09292446
-0.047364917 0.015789133 -0.05942094 -0.09410489 -0.0011900028 0.035100073 -0.05241338 -0.04697732
0.025257867 -0.039317686 -0.061379768 0.003969494 -0.08556952 -0.05292572 0.0047355113 -0.04512968
-0.04239067 -0.11913894 -0.04154647 -0.10912583 -0.07467505 -0.1526838 0.035789896 0.10360034
-0.037829664 -0.10457255 -0.01452982 -0.036519375 -0.017910292 0.031225905 0.05135668 -0.027546009
0.03556384 0.029902127 -0.025386283 0.029005062 -0.049243927 -0.038495418 -0.012915382 -0.046570405
-0.051918913 0.003643641 0.04089754 -0.0015471258 -0.008266668 -0.033802222 0.026138935 -0.1450896

features.1.block.1.running_var f4 [64]
00000000: 9b08 c73c e7ce cb3c 0363 733d 7e8d e23c
00000010: c46f e03c 8f72 be3c b9d5 0d3d ec98 ae3c
00000020: 1b14 263d 5c2c 583c 2ec0 c23c 0384 b03c
00000030: 8aea e73c fa65 de3c 541e 8a3c 9883 243d
00000040: f5fe af3c f084 b83c 96ac c33c dd81 963c
00000050: b22e 003d 25d7 ce3c 8990 283d 30c8 e83c
00000060: 271c 343d 40dc aa3c 24af f43c ddff ff3c
00000070: 794b e93c 97a8 b63c db4b ef3c 0f01 b03c
00000080: 874b ba3c ec2f e03c e0ae 453d 3a6b 3e3d
00000090: e807 1c3d 086e f13c 54c5 423d 3de3 4a3d
000000a0: e65e cf3c 78af d83c 65c2 e73c be31 343d
000000b0: 2c10 d33c 8c66 e33c 4872 fa3c 5153 ea3c
000000c0: 0446 dc3c c1a7 503d 7f41 c33c 773d e83c
000000d0: a54d c43c 69b8 c53c c399 153d 6520 443d
000000e0: 7cdf 023d 9171 f93c 373e 0d3d 3e8a e03c
000000f0: d44f 003d 93bd af3c aeb5 b53c d912 bd3c
0.024296096 0.024878932 0.059420597 0.02765536 0.027397044 0.023247985 0.03462765 0.021313153
0.040546518 0.01319417 0.023773279 0.021547323 0.02831008 0.027148236 0.016860165 0.04016456
0.021483878 0.022524327 0.023886006 0.01837247 0.031294532 0.025249073 0.041153464 0.02841577
0.04397216 0.020856977 0.02986867 0.031249935 0.028478371 0.022297187 0.029210975 0.02148488
0.022741092 0.0273666 0.048262477 0.046488978 0.038093477 0.029471412 0.047551468 0.049533118
0.025313806 0.026450858 0.028290937 0.04399275 0.025764547 0.02775886 0.030572072 0.028604181
0.026888855 0.050941233 0.023834942 0.028349621 0.023962805 0.024135785 0.03652359 0.047882456
0.031951413 0.03044966 0.03448316 0.027409669 0.03132613 0.0214527 0.022181358 0.023080276

head.2.weight f4 [10, 64]
00000000: 0143 0ebf ec76 37bf bd9f 243f fab9 473f
00000010: 4b89 2fbf c4e2 b73e 3cc7 e83e 3f41 e13e
00000020: d764 693f c1b8 0d3f 21d4 9a3e 66b4 28be
00000030: decc 22bf 613a 593e 15ff 5abe 3801 693f
00000040: 4e0c b43e c76e bebd 302b 983d 9dd5 9dbe
00000050: 7b2c 3e3f ff5e d23e ceac 34bf 3adf a93d
00000060: 6798 d23e 9c4f cebd f9f1 133f f393 7c3e
00000070: 46cf 743f f394 ecbe f1fc 81be 46ad 48bf
00000080: 9da2 37bf 09d1 d2be a302 0c3f 1980 dfbe
00000090: 7e33 25bf cd3d e53e 142b 72bf c77c 833e
000000a0: 8056 45be 7cea d3be 0b5c 213f 7073 463e
000000b0: 5c46 283f cda8 6fbf bec6 31bf 20bd 773e
000000c0: b30d cb3e 0dac a2be 8af4 f93e 22b9 3ebf
000000d0: 270d 003e d158 31bf 5570 8abe 7558 b03e
000000e0: bee6 2fbf 7022 183f 2d3e c43d a6ba 3bbf
000000f0: 4049 723f 195e 88be c705 c73e 2a8b 2fbf
00000100: 329e 5fbd 736e 61be 7e39 26bf fed9 a7bd
00000110: f51f 273f c3d6 8a3e eacf 75bf 2794 b03e
00000120: 5579 8a3e 4ca4 c8be c499 553f 8490 39bf
00000130: 17e3 74bf a5ab 27bf 0ae0 6d3f 0181 cb3d
00000140: e38c 32bd 852f 17bf 0ef8 2cbf f9bd 5d3e
00000150: 24f2 653d 0e8a 1ebe ef9d 15bf 7326 163f
00000160: bf8f cb3e 40b7 19bf 904a 403c 9286 30bf
00000170: 0158 073e 69b5 8cbf fac4 dc3e 6df0 0c3f
00000180: 10d6 2e3f 8611 513f 2d2c a4be 7c49 46bf
00000190: a758 c0bd dc6f 3f3f b0db 463e 2991 06be
000001a0: 7529 75bf ac94 9c3e 6148 38bf 7c6b 65bf
000001b0: 5779 1b3e e987 553e 2207 973e c04c 62bf
000001c0: 20b9 41bf 265f d7be ac64 d43e 991f b23e
000001d0: e779 3bbf dded e23e 2cbf 3abf b261 1bbf
000001e0: 4ca3 2d3f 0f41 73be a40e d93d e45a 3b3f
000001f0: a8c4 c33d 011b 85bf 1590 0dbe 1dc9 2b3f
00000200: 3680 0f3e 8f0c aebd 232c a33e 2183 383f
00000210: 39e9 37bf 3c96 b3bb e0fd 67be 3361 56bf
00000220: a287 4d3e 95e0 6fbe 891d a5be 8a4b 53be
00000230: 22e7 403f 552e adbe b511 4f3c f4d6 903e
00000240: 7ad7 c9bc 5780 7cbe b9d7 923e ce42 9abd
00000250: 5a1b fcbd 857e 47be 08b1 5a3f a9fc 28be
00000260: 4ea7 c93e 4a12 37be 24dd 533f 251b 843d
00000270: 6367 02bf 0964 64be c70f 49bf b77f a5bd
00000280: 67c8 673e 78de 62be 8481 6c3e a20e 1c3f
00000290: 275b 423f c7ff 03bc aa98 c33e 0154 6c3f
000002a0: 13cc 23bf 7e29 e13e 5e8f 523e f606 033f
000002b0: 829e d43e 08a3 e13d f770 0ebf a4ac c9bd
000002c0: 1c0a 243f 9ccc 463f 75b9 ffbe 814e 45be
000002d0: bafe 6f3d b49e acbd c0a0 0c3f 86f0 c23e
000002e0: 9cd2 803d da67 6cbf 92a6 483d c2e8 2fbe
000002f0: 0a60 0dbf a404 e63e bcb1 913e fe59 d3bd
00000300: 2fa7 36be a0c4 fbbc 1e0f 7a3e 9dbe d5be
00000310: 4257 093d 2a24 2cbf 3d80 843e 3c27 eabe
00000320: 75fe cbbf 1411 2dbe 4b89 30bf 5ce7 633f
00000330: 5591 5d3e cfce 653e 5329 fd3e d402 82bf
00000340: 19c0 2abf f5a1 20bf 3f6e 9a3e 3061 fdbe
00000350: 9999 5dbf ac96 b43e d2dc 56bc 18e7 d4be
00000360: fa01 20bf 2a07 1d3f 0838 c1be 93a6 81bd
00000370: 9a0b 8dbf a55d 083e f5b9 7e3e 3e24 003f
00000380: db0b 9ebd 0c1e b9be 8124 8c3f 28df 77be
00000390: ae1f 02bf 23ce 8ebf 6a38 a03f 4fe7 e8be
000003a0: 9c6b 0d3f 8620 7dbe 3a52 e03e b772 733e
000003b0: cd99 db3e f2c4 563f 1678 22bf e271 ab3e
000003c0: e516 203f 54b4 b73f 575a 1c3e c9f0 35bf
000003d0: 1011 b8bd fc11 803f 5b38 363f fba7 203f
000003e0: 8cf8 913d aaa4 b8be 465b 0f3f 72a4 d2be
000003f0: e43a 87bf abbc ab3e f656 d33d 589b 373f
-0.5557099 -0.71665835 0.6430624 0.7801815 -0.6856887 0.35915196 0.45464504 0.4399509
0.91169494 0.5536004 0.30239967 -0.16475067 -0.6359385 0.21213676 -0.21386369 0.91017485
0.35165638 -0.09298473 0.07430112 -0.30827036 0.7428662 0.410881 -0.7057618 0.0829453
0.411319 -0.10073778 0.57791096 0.24665813 0.95628774 -0.4620739 -0.2538829 -0.78389394
-0.71732503 -0.41175106 0.54691523 -0.43652418 -0.64531696 0.44773713 -0.9459698 0.25681135
-0.19271278 -0.41389835 0.6303107 0.19379973 0.6573236 -0.93616945 -0.6944388 0.24193239
0.3965889 -0.3177189 0.4881938 -0.7450124 0.12505017 -0.6927615 -0.27038828 0.34442487
-0.6871146 0.5942755 0.095821716 -0.7333168 0.9464302 -0.2663429 0.38871595 -0.6857172
-0.054594226 -0.2201479 -0.64931476 -0.081958756 0.6528314 0.27116975 -0.96020377 0.3448803
0.27045694 -0.3918785 0.8343775 -0.7248614 -0.9565901 -0.65496284 0.9291998 0.09936715
-0.04359139 -0.59056884 -0.67566 0.216545 0.056139126 -0.15482351 -0.5844411 0.5865242
0.39758107 -0.6004524 0.011736527 -0.6895534 0.13217165 -1.0992862 0.4311903 0.5505436
0.68295383 0.81667364 -0.32064953 -0.7745588 -0.09391909 0.7478006 0.19419742 -0.13141312
-0.95766383 0.30582178 -0.7198544 -0.89617133 0.15183006 0.20852627 0.2949763 -0.8839836
-0.75673103 -0.4206478 0.41483057 0.34789732 -0.73232883 0.443221 -0.72947955 -0.60695946
0.67827296 -0.23755287 0.105984956 0.73185563 0.095589936 -1.0398866 -0.13824494 0.6710375
0.14013752 -0.08498489 0.3186961 0.72075087 -0.71840245 -0.005480556 -0.2265544 -0.83742064
0.20071271 -0.23425515 -0.32249096 -0.20634285 0.7535268 -0.3382441 0.012638499 0.28288996
-0.02463888 -0.24658333 0.28680208 -0.07532273 -0.123099044 -0.19481857 0.8542638 -0.16502632
0.39385456 -0.1787807 0.8275931 0.0645049 -0.50939006 -0.22303785 -0.785397 -0.08081
0.22635041 -0.22155178 0.23096281 0.6095983 0.7592034 -0.008056588 0.3820241 0.9231568
-0.6398327 0.4397697 0.20562503 0.51182497 0.41527182 0.11017424 -0.5564112 -0.09847382
0.64077926 0.7765596 -0.4994618 -0.19268228 0.058592536 -0.08428708 0.54932785 0.3807413
0.062901706 -0.92345965 0.04898698 -0.17178634 -0.5522467 0.44925416 0.28455913 -0.10319899
-0.17837213 -0.030733407 0.24419829 -0.4174699 0.03353048 -0.6724268 0.25879088 -0.45733058
-1.5937029 -0.16901046 -0.6895949 0.890249 0.21637471 0.22442172 0.4944559 -1.0157113
-0.6669937 -0.62747127 0.30162236 -0.4948821 -0.86562496 0.35271204 -0.013114171 -0.4158256
-0.62503016 0.61339056 -0.3773806 -0.063306 -1.1019166 0.13316973 0.24875624 0.500553
-0.07717105 -0.36155736 1.094864 -0.24206221 -0.5082959 -1.1156658 1.2517216 -0.45488974
0.55242324 -0.24719438 0.43812734 0.23774229 0.42890778 0.83894265 -0.63464487 0.33485323
0.62534934 1.4351907 0.15268837 -0.71070534 -0.089876294 1.0005488 0.7117974 0.6275632
0.07127485 -0.3606313 0.5599865 -0.41141087 -1.0564847 0.3354238 0.10319321 0.7172141

head.2.bias f4 [10]
00000000: e413 bcbd c338 523f a9d3 a9be 22ba 56be
00000010: 22d3 0abf c69c ac3c 286d 4f3e 350c 24bd
00000020: fa26 cfbd 491e 2ebd
-0.09183481 0.8211786 -0.33169296 -0.20969442 -0.54228413 0.02107085 0.20256484 -0.040050704
-0.10114856 -0.04250935
