results/cifar10_d3_f32_k3_do0.1_adam_lr0.001_20251012_104913/best.pt (torch, 381859 bytes, 8 tensors)

features.0.block.0.weight f4 [32, 3, 3, 3]
00000000: f33c 9d3d cb3a 043e 6742 46bb 8c0f 583e
00000010: f666 c23d 5c33 163e 7e6d 6fbc 1ad2 443e
00000020: b9f6 513e 7025 7bbe da38 343e a767 2c3e
00000030: 1fa0 993d 6348 073e 6ab1 693e 62fc b53c
00000040: affe 8a3e 08fa 243e ac15 a6be fdcd 12bd
00000050: 1acc 08bd ee6a 98be 9f1a 25be ad89 f43d
00000060: 10d1 91be 2e76 0dbe 2044 5fbd 7eec 1fbe
00000070: 79d5 5b3e 5976 92be cda1 853e 9d74 5dbe
00000080: 76f4 6d3d ad43 c1bd 2dbc 60be 8e85 713e
00000090: f015 b2bc 9d0d 9b3e 3564 d7bd d200 583d
000000a0: 00cb 03bb 1dc8 f4bd 8517 0bbd 2d54 0fbc
000000b0: 90e4 313e 234f cdbd 74cc 793e eaf2 31bd
000000c0: d776 663e 65c3 efbd b9af 41be cc76 e2bd
000000d0: af06 6dbe 0b5b 903e 5911 f33d f35f a93d
000000e0: 568b 84bc b996 083d a554 573e ee32 4dbe
000000f0: 3736 c2bd fffc d0bd 1c52 113d bfde 8c3d
00000100: b79a 1e3d 73a0 6dbe c049 8a3e ed02 61bd
00000110: cb58 85be aabc 20be c56a 583e 6a6c 03bc
00000120: 7eac be3e d48e f6bd 14bb a5be 192e d53a
00000130: efde 28bd 97cc 2dbd 8d27 5d3d db27 593e
00000140: 6e7c 25be 8503 a0bd 3af8 a5bd 8cf6 89bd
00000150: e0c2 4e3e 5a1e a6be ec40 8f3e ef6b 03bc
00000160: 31d2 97be 406e 4a3e 0b89 303e 54ed 34be
00000170: 8f5b 2b3e bb01 8c3e b5d5 c3be bfed d03d
00000180: d234 ac3e 1d07 84be 67d4 b43d cd2f 90bb
00000190: 1e59 1cbe 4c1a e03d 1e91 0d3e b9e5 95be
000001a0: 5abe 5d3e a8d3 713d 253a 84be 89ed cd3d
000001b0: 57eb 22be c20a 32bc 7331 953e 2eab a5bd
000001c0: a015 083e 31b0 45bb 67ff 19be c2bd 3f3d
000001d0: 8dcc 4e3e cebc aabe aec5 e1bd 0d9c dabd
000001e0: 0fbf 61be fd04 a0bd eec3 023e 45bb 63be
000001f0: c61c 8ebd 43fa 413d 35c7 18be 9257 fbbd
00000200: 2eb2 1a3e c30c 3dbe 1823 5c3e dc7a 313e
00000210: 1282 4fbe 9809 793e 3d68 b33d 96aa 19be
00000220: 7d11 fdbd ae07 87be 8d85 253c 137d c13c
00000230: 385f 9c3d 2535 68be 5080 183e 726c 66be
00000240: a79a 13be 4976 cd3d d21e 803c adb7 fe3d
00000250: 2bdf a03e dec6 ebbd db37 20bd d91a 2ebd
00000260: 3173 cabd 0ca2 6fbe f34e 893e a753 51be
00000270: 6765 d23d 3a23 6e3e f00c fc3d 1f0d 11be
00000280: 2eb3 873e 0ea2 113b 22c5 663e 2ce7 bd3c
00000290: 3da0 a73e c680 01bd 7b91 f5bd 4eb2 493e
000002a0: a261 5ebb d6cb 40be ab2d 0cbe 3d47 773d
000002b0: 9114 233e e06e 92bb bc40 69be 2753 52be
000002c0: 7ac2 85be e757 84bd a272 b43a 82d3 91be
000002d0: 486e 0e3e e473 493e e2b7 c73d c126 4bbd
000002e0: 5d72 f73d 8333 e23d 32b8 353d 2cc0 8ebd
000002f0: 16a6 83bd 6c6e 503d 0f76 94bd 1984 4cbe
00000300: 02c3 da3d e59e d33e d9ea bfbd da99 59be
00000310: 4507 d43d 3ba6 103e b7a1 013e 5578 55bb
00000320: 092a cbbe 3d34 6bbd 280d bb3e 8a31 d2bd
00000330: 842f 08be d096 38bd fbe2 49bd cb21 81bd
00000340: ef30 c8bd 69a1 febd 7374 443e 207b a13e
00000350: 8427 96be d7f6 2abe 6e22 983d 49e0 8b3e
00000360: 03f6 fb3d a840 8f3d d229 143e b485 85be
00000370: 0dad adbe 1f6a 3f3d 7050 283d 18d4 6f3d
00000380: 489f 24be 6c19 643e 9608 9b3e e9ed 2e3e
00000390: 4a79 9bbe 8a97 b3be 8943 51be 2f75 883e
000003a0: 9efb 673e 1acf 713e 7943 cc3d 8652 cd3d
000003b0: 0ed6 a03c a581 99be 8dd1 9cbe 858e 63be
000003c0: 4180 393e b79a e23c f504 493d d75b 81be
000003d0: 52e5 83be 1915 2bbe 71a6 a9bd 0f8b ee3d
000003e0: b898 6b3d 8b7a c03e 71f6 ff3d 6f1b 803d
000003f0: 868d 3abe 54a1 a9be b1da d6bd 77ba 2bbe
0.07677641 0.12913053 -0.0030251981 0.2109968 0.094922945 0.1466803 -0.014613507 0.19220772
0.20504273 -0.24526 0.17599812 0.16836415 0.07501244 0.13211207 0.22821584 0.022215072
0.27147433 0.16111004 -0.3243841 -0.035840977 -0.03339777 -0.2976908 -0.16123436 0.11940322
-0.28479815 -0.13814613 -0.05450833 -0.15617558 0.21468152 -0.28605917 0.26100007 -0.21626516
0.058094464 -0.09436736 -0.21946783 0.23586103 -0.021738976 0.30283824 -0.1051716 0.052735157
-0.002011001 -0.11952231 -0.033957977 -0.008748096 0.17372346 -0.1002486 0.24394399 -0.04344455
0.22506271 -0.117071904 -0.18914689 -0.11057815 -0.23147081 0.2819446 0.11868543 0.08270254
-0.016179722 0.033346865 0.21028383 -0.2003896 -0.09482997 -0.10204505 0.035478696 0.06878423
0.038721766 -0.23205738 0.27009392 -0.05493443 -0.26044306 -0.1569697 0.2113448 -0.008021453
0.37240976 -0.12038961 -0.32369292 0.0016264349 -0.04122823 -0.04243144 0.053992797 0.2120661
-0.16160747 -0.07813171 -0.08103986 -0.06736478 0.20191526 -0.3244503 0.2797922 -0.008021339
-0.2965255 0.1976862 0.17239778 -0.17668658 0.16734146 0.2734507 -0.38248983 0.102015965
0.3363405 -0.25786677 0.08829575 -0.0044002295 -0.1526837 0.10942516 0.13824889 -0.29276827
0.21654645 0.05903974 -0.2582561 0.10055072 -0.15910088 -0.010866823 0.2913929 -0.080892906
0.132895 -0.0030164833 -0.15038835 0.046811827 0.20195217 -0.33347172 -0.110240325 -0.106742956
-0.2204554 -0.078134514 0.12770054 -0.22239406 -0.06939082 0.04735781 -0.14919741 -0.12272562
0.15107033 -0.184619 0.21497762 0.17332023 -0.20264462 0.24320066 0.08760116 -0.1500648
-0.12356851 -0.26373047 0.010102642 0.02361921 0.07635349 -0.22676523 0.14892697 -0.22502306
-0.14414464 0.10032327 0.015639696 0.12437377 0.31420264 -0.1151254 -0.039115768 -0.042506073
-0.09885252 -0.2340166 0.26818046 -0.20442067 0.10273247 0.23255625 0.12307155 -0.14165162
0.2650389 0.0022221836 0.22536138 0.02318152 0.3273944 -0.03161695 -0.11990639 0.19696924
-0.0033932705 -0.18827757 -0.13689296 0.060370672 0.15925814 -0.0044687837 -0.227786 -0.20539533
-0.26124936 -0.064620785 0.0013767073 -0.2848168 0.13909256 0.19673115 0.0975187 -0.049597505
0.1208236 0.11044981 0.044365115 -0.069702476 -0.06428163 0.050886557 -0.072490804 -0.19972266
0.10681726 0.41332164 -0.093709655 -0.21250096 0.10352949 0.14125912 0.12659346 -0.0032572944
-0.39680508 -0.057422865 0.36533475 -0.10263355 -0.13299376 -0.0450657 -0.04928873 -0.063052736
-0.09774958 -0.1243313 0.19185047 0.3153925 -0.29327023 -0.16695724 0.07428442 0.27319553
0.123027824 0.06994754 0.14469078 -0.2607857 -0.3392109 0.046732064 0.041092336 0.058551878
-0.16076386 0.22275323 0.30279988 0.17082943 -0.30365974 -0.35076553 -0.20435919 0.26651904
0.22654578 0.23614159 0.09973807 0.10025506 0.01963332 -0.29981723 -0.30628625 -0.22222336
0.18115331 0.027661664 0.049076993 -0.2526538 -0.25760895 -0.16707267 -0.08283699 0.11647617
0.05751869 0.37593493 0.12498177 0.062552325 -0.1821805 -0.33130896 -0.10490931 -0.1677035

features.0.block.0.bias f4 [32]
00000000: 71bf 96be 36e3 c63d bd46 373e f4f5 07be
00000010: dcd0 ebbe afe2 d1be a9be 91be 66cb b73c
00000020: 090a b8bd 5468 eebd 2a58 02be 33af c4bd
00000030: 9fa1 edbe 27fc 56bd d7cb d0bc 3af2 b5be
00000040: 575e 85bd 682e a5bc c49b 2bbe 9edc 183f
00000050: 2383 843e 0454 e13e 1557 f2bc 69ef bdbd
00000060: d409 f4be b04e 97bc c466 79be 8a4d 403d
00000070: 1054 ecbd 7f46 21bd f135 603e 6f69 babb
-0.29442933 0.09711306 0.17898078 -0.13277417 -0.46057785 -0.40993258 -0.28465775 0.022435855
-0.08986289 -0.11640993 -0.12728944 -0.09603729 -0.4641237 -0.052486565 -0.025487823 -0.35536367
-0.065121345 -0.02016373 -0.16758639 0.59711635 0.258813 0.4400941 -0.02958254 -0.092741795
-0.47663748 -0.018470138 -0.24355608 0.046948947 -0.11539471 -0.03937387 0.21895577 -0.005688838

features.1.block.0.weight f4 [64, 32, 3, 3]
00000000: 25df ea3b 63fb e0bc 5a1d 0dbd 875c 503d
00000010: d6ec a73d 6f5c 213d c001 923d 0143 3cbd
00000020: a2d7 57bd f2d9 223e 0280 213d 8da5 b23d
00000030: 4839 35bd 61ee 1fbe 9eba debd 3105 a23b
00000040: ec4f a5ba ed8f 42bb 6478 603d 263e 62bd
00000050: f2a2 a2bd 3b98 273c e449 88bd 6e99 cebd
00000060: b75d 083d bad5 e23d 86cc e63c f902 8bbd
00000070: 3163 e4bd af74 14be bb1c f2bc a143 49bd
00000080: 359d 8bbd e87a de3d bb0b d13d fa57 ad3d
00000090: e3f6 1b3b c71e a0bd 031c e3bc 7e43 b0bc
000000a0: 7731 dcbc 353e 2a3d 03bc 653d 2ce5 153d
000000b0: 5b4e a23d d394 303a 3c20 543d 2dbf 8f3d
000000c0: b918 e9bd f305 943c 9877 4fbd 3db1 96bd
000000d0: 720f 3b3d 79ae cf3d 7db2 81bc 9692 363c
000000e0: 612f 8f3d 5664 c83b 205d a23d db68 2b3c
000000f0: 3661 18be c1ab 97bc d625 3e3d c95c 883d
00000100: 3ad9 043d a1f1 be3d 8cbf 4ebd 84fe 9fbd
00000110: a372 61bd db47 b83c f4f0 3bbc b131 00bd
00000120: e9f7 cc3d 4b2e be3d e262 183e 2410 d43b
00000130: 0fb3 983d 4f9e 903d 74ec 8ebd 078e 8dbd
00000140: eb95 6ebd 749e 0c3e 6ffc 1b3e ebf3 2f3e
00000150: e68f 1cbd 0688 8ebd bb10 95bd 6b09 3abe
00000160: 510c 56be 495d 24be 53e3 09be c22a 1abe
00000170: 53ce 1ebe c255 a13d f4be a03c e62d 533d
00000180: e97e ca3d 04e0 553d 538f 183e b215 81bc
00000190: e6d5 a93b 7915 1c3d bb4f 89bc af54 80bd
000001a0: 8a8b 043d c6f7 15bd 17a1 21bd 40f2 c43c
000001b0: 0f0a dc3c 20c1 683d dc58 bb3d e26e 0fbd
000001c0: f7dd 89bc 9bb8 503c 324d d33b c5f5 8abc
000001d0: 7a8b 053d 4a83 a4bd 4d3f 91be f7d4 03be
000001e0: 8a5d 1abd 06c5 05be 9ab5 033d 09ea f33d
000001f0: 927e 5ebd 9864 073e 83a1 8a3d 5e9f 9fbd
00000200: 7998 853d 884c 53bc a75d 4ebe 622d 5fbe
00000210: b0a1 5d3d aa2d 2fbe bd0b 913d cf12 353e
00000220: 3430 3f3e 7614 243e b1e0 3b3c fb41 e53d
00000230: cc7b 9d3d 746b c0bd 0406 5e3d 5e6f 223d
00000240: ea20 da3c cb0f 173d 3411 a1bc 954d 94bd
00000250: 41fe 2bbe 1128 81be eb8b 1f3d face a03d
00000260: ca34 28bc 3659 fdbd 6304 35bd 0043 babd
00000270: 2e38 87bc 89f0 4b3d af99 013e f2d7 5dbb
00000280: 948a 753d a79b 2d3d a655 17be 3227 46be
00000290: 68ab 47be 46f7 d43d b864 d53d 540b 043e
000002a0: 3094 bdbc 9b8c 193d 38af 9dbc 45a0 253e
000002b0: 2f96 173e 4247 393e 0409 23bc 9877 73bd
000002c0: efed afbd ca8d 38bd 87fb 2ebe e3b8 77bd
000002d0: 152a 963d 9b32 7a3d 1d8a 723c fdd9 d93c
000002e0: ba14 b6bc 2bd8 10bc 84da c3bc 2c32 83bd
000002f0: 4bfc 19bd 8cc1 1a3e cbc1 403e a30d 323e
00000300: 6c23 35be c86d 48be fc77 07be ea76 9cbd
00000310: f0a6 98bd 6eff 21bd ed7f c43d ea86 09bc
00000320: 2fc0 6dbd 92be f3bc d054 07be 3774 25be
00000330: 5b49 353d 3555 f83d 2825 203d d780 8e3d
00000340: 7b43 6dbd 51e6 62bd ea0a 7bbd fd01 88bd
00000350: ffdb 8abe 1437 833d ab9e b23d 34c8 58bd
00000360: 9a71 46bb 73a4 ce3c 1aa5 773b a84f 95bc
00000370: 87f9 83bd c3d6 adbc 2b96 c53b cf67 56bd
00000380: 3bf0 30bd a98a 83bc 0351 083d 61ff 643c
00000390: 2655 6b3c bc38 2dbd 8dea 5b3d 7fe7 0dbb
000003a0: 02ff 2a3d 2bcc 2f3d 6501 97bd cb3b f83d
000003b0: 0509 843d 0c69 37be f5b2 b4bc 3454 96bd
000003c0: 7373 12be 4510 c4ba 2e87 c3bd cc0c c5bb
000003d0: 0e34 143b 17bf aabc 66e2 933d 7162 78bc
000003e0: 1663 583b 273c b43c d17c 93ba bb87 8ebd
000003f0: 3019 443d 15ec 10bd 3788 18be 6d78 6abc
0.007167714 -0.02746362 -0.03445182 0.05086949 0.0819947 0.039394792 0.0712924 -0.045962337
-0.052695878 0.15903452 0.03942872 0.087229826 -0.04424408 -0.15618278 -0.10875438 0.0049444665
-0.001261232 -0.0029687837 0.054802313 -0.05523505 -0.079412356 0.010229166 -0.066547185 -0.10087858
0.0332925 0.11075921 0.028173696 -0.06787676 -0.11151732 -0.14497636 -0.029554715 -0.04913676
-0.06817094 0.10863286 0.102073155 0.08464046 0.002379828 -0.0781837 -0.027723318 -0.021516558
-0.026879055 0.04156323 0.056087505 0.03659551 0.07925101 0.0006736044 0.051788554 0.07018886
-0.113816686 0.018069243 -0.050651163 -0.07358024 0.045669027 0.101407 -0.01583218 0.011143347
0.06991459 0.0061154766 0.079279184 0.010462011 -0.14880833 -0.018514516 0.046422802 0.06658322
0.032433726 0.09323431 -0.050475642 -0.07812217 -0.055040967 0.0224952 -0.011471022 -0.03129739
0.100082226 0.092861734 0.14881471 0.0064716507 0.07456028 0.07061445 -0.069786936 -0.06911855
-0.05824844 0.1373232 0.15233015 0.17182891 -0.03822317 -0.06959538 -0.07278582 -0.18167655
-0.20903136 -0.1605121 -0.13465624 -0.15055373 -0.15508394 0.07877685 0.019622304 0.051557444
0.098874874 0.05221559 0.14898424 -0.015757415 0.0051829694 0.038106415 -0.016761651 -0.06266152
0.032359637 -0.03661325 -0.039460268 0.024041295 0.026860265 0.056824803 0.09147808 -0.035017855
-0.016829474 0.012739326 0.0064484114 -0.016962895 0.03260372 -0.08032854 -0.28368607 -0.12874208
-0.037686862 -0.1306344 0.03215561 0.11909873 -0.054319926 0.13221967 0.06769087 -0.07794069
0.065232225 -0.012896664 -0.20152913 -0.21794656 0.054109275 -0.17107263 0.07082317 0.17682956
0.18670732 0.1602343 0.011467145 0.111942254 0.07689628 -0.09395495 0.054204956 0.03965699
0.026627023 0.036880296 -0.019661523 -0.0724136 -0.16796209 -0.2522588 0.038951796 0.07851978
-0.010266492 -0.12370531 -0.044193637 -0.090948105 -0.01650628 0.04978994 0.12656282 -0.0033850637
0.05994661 0.04238477 -0.14778766 -0.1935089 -0.1949898 0.10398726 0.10419601 0.12894946
-0.02314195 0.037487607 -0.01924859 0.16174419 0.14803384 0.18093589 -0.00995088 -0.059440225
-0.08590304 -0.045057096 -0.17088138 -0.060479056 0.07332245 0.061083417 0.014803437 0.026593203
-0.02222668 -0.008840601 -0.023907907 -0.06406054 -0.03759412 0.15112895 0.18823926 0.17388014
-0.17689294 -0.19573128 -0.13229364 -0.076398686 -0.07453716 -0.039550237 0.095947124 -0.008393982
-0.05804461 -0.029753957 -0.13215947 -0.16157614 0.04425941 0.12125627 0.039097935 0.06958168
-0.057925683 -0.055395428 -0.061289705 -0.06641004 -0.2712097 0.0640699 0.0872167 -0.052925304
-0.0030280114 0.0252249 0.0037787617 -0.01822646 -0.06444078 -0.02122057 0.0060298643 -0.052345093
-0.04319785 -0.01605733 0.033280384 0.013976903 0.014363563 -0.042290434 0.053690482 -0.0021652875
0.0417471 0.04291932 -0.07373313 0.121207796 0.06447033 -0.17911166 -0.02205799 -0.07340279
-0.14301853 -0.0014958462 -0.09547268 -0.0060134884 0.0022614035 -0.020843072 0.072209165 -0.015160189
0.0033018044 0.02200134 -0.0011252408 -0.06959482 0.047875583 -0.035381395 -0.14895712 -0.014310938

features.1.block.0.bias f4 [64]
00000000: 48e2 4bbe 456f fdbd a09b fdbe 45c3 17bd
00000010: dfca 83bd 8a83 ddbe 8bdd 9bbe ca60 abbd
00000020: f45c da3e a444 3ebe 9b0b 01bd 4f9c 273f
00000030: 3eb4 f03e f300 873c b94c edbd 11f7 8f3e
00000040: 3765 11be dcf0 9abd bdd1 f33e 76dd cf3e
00000050: 99ad 023f 3fd3 b63e dcb6 103e b3b9 25be
00000060: 6a99 f13d a0c4 3ebe 9e7d 843e 5c48 c13d
00000070: ffa2 adbe cb79 15be 2a67 b93e 7404 153f
00000080: 3f80 1e3d fde4 5e3e b6ac 5bbd 59d8 acbd
00000090: e4fc bfbd 5bad 8b3e 3f00 44be 50ae 9abe
000000a0: 3f37 2abe f76a 5cbe eff9 f43d 46bf de3d
000000b0: 6c93 5c3d ddf5 c9bc 38c6 5abd c07e 61be
000000c0: a9a1 23be 32ed 1fbe e8ec 213f 146f dabc
000000d0: 9673 313f 0790 dd3e d8d8 483e cbb1 113e
000000e0: 6a93 adbe 801f bf3d 839a 3bbd 2cc2 12be
000000f0: a40d 33be 394b 1f3f 007a 1abe 9f4d 2f3e
-0.19910538 -0.123747386 -0.49532795 -0.037051458 -0.06435179 -0.4326442 -0.3044246 -0.083680704
0.42649043 -0.18580872 -0.03150521 0.65472883 0.47012514 0.016479945 -0.11586899 0.28118184
-0.14198767 -0.075654715 0.47620955 0.4059865 0.5104614 0.35708043 0.14132255 -0.1618412
0.117968395 -0.18629694 0.25877088 0.094376296 -0.3391342 -0.14597242 0.3621152 0.5820992
0.038696524 0.2176704 -0.053631507 -0.084397025 -0.09374407 0.27280697 -0.19140719 -0.30211115
-0.16622637 -0.21525179 0.119617335 0.10876326 0.05385153 -0.02465337 -0.053411692 -0.22021008
-0.15979637 -0.15617827 0.63252115 -0.026664294 0.69316995 0.43273947 0.1961397 0.14227979
-0.3390153 0.0933218 -0.04580165 -0.14331883 -0.17485672 0.62224156 -0.15085602 0.17119454

features.2.block.0.weight f4 [128, 64, 3, 3]
00000000: 0acd f7bd 80e8 4a3c 7572 c8bd c53f 75be
00000010: 423d 93be 7eca 82be 606d b2bd 433b c6bd
00000020: f213 113d 0968 6cbe 55c0 57be da46 44be
00000030: 358f d7be eb18 0cbf 5906 d1be d6fb 63be
00000040: 7fb6 5cbe 0be9 84bd b2bc a6bd 1d9b 26be
00000050: 31d3 07be f37f 7fbd 6a3d 00be 8f55 33be
00000060: b1cd 613d 1080 eb3d d103 42bd 46fd 0ebe
00000070: 4b27 32be bfed 1ebd 43d6 3ebe 8399 21bd
00000080: fbd0 153e 17dc ef3c 5d7b fe3d c23c 823e
00000090: 40e3 dbbc 0a8d 293c d176 853c f374 2c3c
000000a0: 09f4 43bd 840e da3c 20e6 e83b 251f 093d
000000b0: 2180 aebb 36ad 70bd b772 7abd 579f b6bd
000000c0: 81ca bbbc 3317 cd3d e235 0c3e 67ac b73d
000000d0: eaa6 3c3e d42a 243e 6fb5 fd3d 7d7e d13d
000000e0: f7ef 973d 7994 733d 0927 f23c c795 14bd
000000f0: fd0d 48bd 2526 dfbc f083 88bd 5853 a1bc
00000100: 203d e1bc 280c 84bc ca6c f13c 70e3 ebbc
00000110: c432 923c 2b27 763d 9b38 76bd 8e01 1b3d
00000120: 36b4 b5bb 2171 d23c 89d6 eb3a 9347 6bbe
00000130: a370 84be eb9e 93be d57b 0abe 0e88 a7be
00000140: 88e6 42be 35e0 d5bd ae11 f9bd f6ea 0abb
00000150: 1030 d4be 1dd9 e3be 33da dfbd 0f49 8cbe
00000160: 65ce 55be 4314 8c3d 9784 a33c 8225 42bd
00000170: ec3b a7bc 9343 e13d 4c44 93bd 246c d0bc
00000180: ed23 a33d ccd8 c7bc 787a c8bd e5b3 ed3c
00000190: 11fc c23d a06f 283e 03d7 443e a297 533e
000001a0: d474 893e f15a 743e c00d 673e d346 893e
000001b0: e979 603e 94f8 643e def8 103e d224 e83d
000001c0: dee4 753d 1b70 eebb bcaa 03bd 4bb6 63be
000001d0: d58f a2bd 9e3f e4bc 496e 113d d395 55bc
000001e0: 94f4 26bd b200 7abc 2d00 e13c 36e2 d33c
000001f0: 0060 91bb 06e3 cb3c 84c9 97bd 8090 5dbd
00000200: 4042 0eb6 0255 0dbb 8a66 4f3d 4d21 b13c
00000210: 5e85 d33d ba65 a93d 2175 e03c fc9b 993c
00000220: 3266 00bc 4f19 6a3d 1a4a 493d 05fc 9bbd
00000230: ba50 40bd 297b 013d cb57 bbbc 2616 a9bd
00000240: 8130 02bd 324e e1bd 4ec2 f8bd 3f39 c9bb
00000250: e7b3 9cbd 9cac 23be 27ba ff3d 65cd c23d
00000260: aa26 6ebc a189 35bd 6a66 e4bc 12f6 173d
00000270: d491 9dbd 70d5 0b3c 7277 dfbc 3316 233d
00000280: 030c 763d c72e 943d 61d1 963d 8f15 7a3d
00000290: 0194 15bb fcbf 8fbd 5d5d 02bd 27fd 11bd
000002a0: 050f bdbc 3d4d 00bd 1409 39bc 21f1 a13d
000002b0: f280 3ebc ad08 563d d846 e63b 505d 82bc
000002c0: d436 4c3d d80f b13d 4c8a 473d 9550 523c
000002d0: 94f0 833c 332d 57bb 6ae8 54ba 2053 24bd
000002e0: 31c0 76bd 77df ab3d 3dc9 1f3d 5f98 38bc
000002f0: 0b5b da3d 86c1 6cbe 5829 01bf c967 98be
00000300: dfe8 85be cb8d f7be 0df1 a7be 8d2e 38bb
00000310: 7e3f 19be d07a 07bd 91ce 90bd 2ce1 95be
00000320: 9cec f0bd 41ad f5bc 57db 23be f277 b6bc
00000330: c69c 873e bf31 7c3e 60e1 f93c 0108 7ebc
00000340: d619 f8bd 6584 e6bd 49ad fabd dade 70bc
00000350: 4ea5 473d 59cd 903d 844b 1c3e 7681 2e3e
00000360: 7c46 b33d 7fd1 55bd b9d5 7fbc f957 e6bd
00000370: ab6f 14bf 2cff e3be 19be 9d3c ce89 aabe
00000380: 28f9 83be 7a9b 05be 8465 02be 21e5 babd
00000390: d7f2 2fbb fc5d fdbd 8283 05be 53c6 b93d
000003a0: da9c a43d 242d 543d c8e1 213e fee8 fb3d
000003b0: 6793 923d 4d59 bc3d f824 713d 02cb ab3d
000003c0: dfaa c0bd b004 25be 44a1 a3bc 7be3 613d
000003d0: d5e2 413c 37fa 063d d401 0f3d 528c ab3c
000003e0: cc58 073d cfac ae3c 3446 ca3b 476c 1dbc
000003f0: c095 77bd a7f3 f6bd 9ea8 20bc d43f 193d
-0.12099655 0.012384534 -0.09787456 -0.23950107 -0.28757674 -0.25545114 -0.08712268 -0.09679272
0.035419412 -0.23086561 -0.21069463 -0.19167653 -0.42101446 -0.5472552 -0.40825155 -0.22264037
-0.21553992 -0.06489762 -0.081414595 -0.16270109 -0.13264157 -0.06237788 -0.12523428 -0.17513107
0.055127803 0.11499035 -0.04736692 -0.13963804 -0.17397802 -0.03880095 -0.18636422 -0.03945304
0.14630501 0.029279752 0.124258734 0.2543698 -0.02684176 0.010348568 0.016292008 0.01052593
-0.047840152 0.02661825 0.007107511 0.033476967 -0.0053253327 -0.058758937 -0.061144557 -0.089171104
-0.02292371 0.100141905 0.1369243 0.0896843 0.18423048 0.16031963 0.12388121 0.10229204
0.074188165 0.059467766 0.029559629 -0.03627565 -0.048841465 -0.027239868 -0.0666579 -0.019693062
-0.027494967 -0.016119078 0.02947082 -0.028794974 0.017846473 0.060095947 -0.060112577 0.03784328
-0.0055451645 0.02568871 0.0017993014 -0.22976522 -0.25867185 -0.28832182 -0.135238 -0.3272099
-0.19033253 -0.10443155 -0.12161575 -0.0021197177 -0.4144292 -0.44501582 -0.1093029 -0.2739949
-0.20879515 0.06839802 0.019960685 -0.04739905 -0.020414315 0.10999217 -0.07190761 -0.02544219
0.07965837 -0.024395369 -0.09788984 0.029016444 0.09520734 0.16448832 0.19222645 0.20663312
0.26846945 0.23862816 0.22563839 0.26811847 0.21921505 0.2236045 0.14157435 0.11335148
0.060032718 -0.0072765476 -0.032145247 -0.22237508 -0.0793759 -0.027862366 0.035505567 -0.013036209
-0.04076059 -0.015258955 0.027465904 0.025864702 -0.004436493 0.024888527 -0.07411483 -0.054092884
-2.1198211e-06 -0.0021565561 0.0506349 0.021622324 0.10328172 0.08271356 0.027399601 0.018751137
-0.007836865 0.057153042 0.049142934 -0.07616428 -0.046951987 0.031611595 -0.022869011 -0.082561776
-0.03178454 -0.11001243 -0.12146436 -0.0061408575 -0.07651501 -0.15983814 0.124866776 0.09511832
-0.014535585 -0.044320706 -0.027880866 0.037099905 -0.0769383 0.008534774 -0.027278636 0.039816093
0.06007005 0.072354846 0.073641546 0.061055716 -0.0022823813 -0.0701904 -0.03182732 -0.035641816
-0.023078451 -0.03132366 -0.011293668 0.0790732 -0.011627423 0.052254368 0.007027488 -0.015913635
0.049856976 0.086456 0.048715875 0.012836595 0.016105928 -0.0032833337 -0.00081217906 -0.040118337
-0.06024188 0.08392232 0.039010275 -0.011266797 0.10661896 -0.23120698 -0.5045371 -0.29766682
-0.2615423 -0.48350367 -0.32801095 -0.0028103918 -0.14965627 -0.033076108 -0.070706494 -0.29273355
-0.1176388 -0.02998984 -0.1600164 -0.022273991 0.26486796 0.24628352 0.030502975 -0.015504838
-0.12114303 -0.11255721 -0.12240083 -0.014701569 0.04874163 0.07070417 0.15263182 0.17041573
0.08753678 -0.052201744 -0.01561492 -0.11247248 -0.5798289 -0.44530618 0.019255685 -0.33308262
-0.2577603 -0.13047591 -0.12734038 -0.09125734 -0.0026847625 -0.12371442 -0.13038447 0.090710305
0.080377296 0.051800862 0.15808785 0.12300299 0.07157021 0.0919672 0.058873147 0.0838833
-0.09407591 -0.1611507 -0.019974358 0.055148583 0.011833866 0.032953467 0.034913853 0.020940933
0.033043668 0.021322636 0.0061729196 -0.009608335 -0.060445547 -0.12058192 -0.0098058265 0.037414387

features.2.block.0.bias f4 [128]
00000000: 108c f13e b52e 29bd c76d aabd c510 873e
00000010: ffbb d3bb 869b 793e cf17 27bd 11e3 7a3e
00000020: 6db0 11be ac85 8c3e 0d0b 963d c2b4 3939
00000030: 1ac2 233d 0d47 b53d 82e6 063d 2f3b 1e3e
00000040: fbec 7f3e bee7 79bc 2991 d33e 3783 b8bc
00000050: 4f49 26be e6b0 f5bc b4b2 2dbd dbed 13be
00000060: c451 a63d 1a20 7b3e e0c3 613e e617 3dbd
00000070: d449 5d3e ed5e 65be 1182 973e fab5 ba3e
00000080: 314f c73c 697d 9fbe 1028 eb3e e65f e13e
00000090: cb06 b33e 334d 0e3f caab 4dbd 068c 52bd
000000a0: 97a4 2fbe c48c ae3e 840c 03be b0a0 a1bd
000000b0: 20e3 95be 5541 d0bd 1374 8a3e 7168 a63e
000000c0: cd8a 963e 208a 6c3e 0564 b23e eb3f bc3e
000000d0: a9fb 94bc b4eb 62bd f081 0a3d acb3 883d
000000e0: 9177 e0bc 83cc b1bd 7275 f4bd dad8 f7bd
000000f0: 1731 153e 736e f33d af00 813c 5918 60bd
00000100: 999e afbd b1cd 52bc 37a2 933e d38a cb3d
00000110: 84ee 343e 9420 953e eff5 f93d c94e 78bd
00000120: c748 70bd 0df5 a73d 347f 4f3e ae92 40be
00000130: 295b 12be 92ca cb3e 2bf0 ce3e 8006 543e
00000140: 7f52 5d3d 5e77 4a3e 8cae 97bd fc3f 83be
00000150: cfac bc3e 4ab4 783e fde6 af3d d966 263e
00000160: b641 bb3d d059 323e 6da3 f0bd e0eb 7abd
00000170: 4feb f13e 2af9 873e 244a da3d d21c e9bd
00000180: 4b6a c43e 3e1f 033f 05cc 0b3e 5c5f f63d
00000190: 7d2a 973d 0064 cb3e 477d 2cbd e736 99bd
000001a0: eda2 913d 6f75 0cbe 1a3a 98bd 8f7c e23e
000001b0: fb45 5cbd 7afb e53d fd10 1d3e afa1 2dbc
000001c0: c258 953d 16e3 2dbd 1fd1 6c3e ad1e 4cbe
000001d0: ec5d 5a3e 88a0 a23e 24d5 543e 1246 823e
000001e0: b917 64bd 6c8b cc3e f50a 513e 641e 95bd
000001f0: c728 09be 2257 8d3e 88c8 9aba 19b9 7e3e
0.47177172 -0.04130431 -0.083217196 0.26379982 -0.00646162 0.24375734 -0.04079419 0.24500681
-0.14227457 0.27445734 0.073263265 0.00017710312 0.03998003 0.088514425 0.032934673 0.15452264
0.24992745 -0.015253006 0.41321686 -0.022523506 -0.16238903 -0.029991578 -0.042406753 -0.14446203
0.08121064 0.24523965 0.22047377 -0.04616537 0.21610194 -0.22399493 0.2959142 0.36466962
0.024329754 -0.31150368 0.45929003 0.44018477 0.3496612 0.55586547 -0.05021266 -0.051403068
-0.1715263 0.3409177 -0.12797743 -0.07891977 -0.29274845 -0.10168711 0.27041683 0.32501557
0.29402772 0.23099566 0.34841934 0.36767516 -0.018186407 -0.055400565 0.033815324 0.06674895
-0.027400764 -0.08681586 -0.119364634 -0.12101908 0.14569508 0.11886301 0.015747396 -0.05471072
-0.08575172 -0.012866423 0.28834698 0.09938588 0.17669111 0.29126418 0.12205111 -0.06062201
-0.058663156 0.082010366 0.20263368 -0.18805954 -0.14292587 0.39802986 0.4041761 0.20705605
0.054033753 0.19772097 -0.07406339 -0.25634754 0.36850592 0.24287525 0.085889794 0.16250171
0.09143393 0.17417073 -0.11749921 -0.061260104 0.4724984 0.26557285 0.106586725 -0.1138245
0.38362345 0.51219547 0.13652046 0.12029907 0.07381151 0.3972473 -0.04211166 -0.07481175
0.07111154 -0.13716672 -0.07432957 0.44235656 -0.053777676 0.11229606 0.15338512 -0.01059763
0.0729232 -0.042452894 0.23126648 -0.19933577 0.21324891 0.317631 0.20784432 0.25444084
-0.055686686 0.3995012 0.20414336 -0.07281187 -0.13394462 0.2760554 -0.001180903 0.24875297

head.2.weight f4 [10, 128]
00000000: 8e72 ebbd 5b34 f1bc 6585 3f3e c687 9fbe
00000010: b10f 043e 0989 2f3d f7d4 3bbc 1fc9 103e
00000020: e98b 273e 853f f3bd 36df 1ebe a533 00be
00000030: a513 d63d e0bc 943c 808a 3d3d 3924 183e
00000040: d2b8 c73d 72fb b8bd 7878 ad3d 73b6 96be
00000050: 5968 04bd f842 f6bd 9297 2fbe 49d3 a0bc
00000060: a51b 133e 86c6 54be b0f4 0c3a 0aeb 70be
00000070: 4c6f b9be 09da 2b3e 5a76 8bbd ffea cabe
00000080: e43e 4b3e 4b77 dc3d cf9b 93be d377 48be
00000090: ec67 8c3e c4ed 6bbc 3e81 dfbd 07c5 933e
000000a0: 3ec6 3f3d 3a25 d7bd 2652 25be f4a2 b5bd
000000b0: d61a 4b3e 1e53 d7bd 29fc 413e 3248 423d
000000c0: c6a9 2abe 081a be3d 6940 1dbe 1040 1fbe
000000d0: adec 9c3d 5b21 dc3d 4156 85bd 2408 c1be
000000e0: 99db b2bd 5893 9e3c d184 2abe 8be6 5cbd
000000f0: 0684 c43d 8b5f 97be e91d 38bd 197c aa3c
00000100: 89fd f83c 46f6 033e c975 37be c863 a73d
00000110: 7c56 dc3b cdd1 f8bd 2ae5 87bd a5a4 d03d
00000120: 4a9a 30be a439 363e ad92 6d3e 4e84 433e
00000130: 51c3 7cbd 09fe 25be 7a89 3ebc 17e2 81be
00000140: 7d4b 0a3e b0d0 39be 2c1e 2d3e f6a8 1abd
00000150: e142 18be 3835 0bbe 610f e13d e148 cf3c
00000160: ece3 28be 63d6 b73d 9a55 c53e 4106 703d
00000170: 0b8e 8cbe cbf4 063e 3bb8 0c3e 1543 08be
00000180: a58d 88be ffab f93d 5797 eebe 875b 123e
00000190: 483b b63c d285 5bbe aa96 a33e 5697 c3bd
000001a0: 521d b13c 8330 3b3e 0025 1c3e d7bc 24be
000001b0: 458e 2f3d 05d8 d83d 14de 6e3d 2c2f 66be
000001c0: cd32 403d 9203 32bb 66c0 913d b47a 663b
000001d0: 077b 49be 895e 313d 095c b9bd aa26 b3be
000001e0: faad 0abe 01f2 15be a331 b1bd de8f 8bbd
000001f0: 9c3f 97bd 4826 103e 60e3 233e 566d 1fbe
00000200: a1a1 39be 82c5 db3e dca4 063e 668a 6c3d
00000210: a527 d1bd 398a 0bbe e311 9ebc 0959 80be
00000220: da57 8dbc ed23 0bbc ebfa 70be fb1f 5d3e
00000230: 38b5 c3bd 33f2 ca3e d5f6 f03d f75b 823d
00000240: e277 6bbe 2235 6cbe ae6a e2bd 4a67 41be
00000250: fec3 e13d 1a80 62bc 695b bfbb b869 883e
00000260: 5cd4 5e3e 0417 8bba 7a8a b2be 6bb6 9a3e
00000270: cb2c 6d3e 57fb 803c 512c 65be 320e c9bd
00000280: b56c 503d a712 223d e818 8fbe 71c7 74be
00000290: b2b5 6abe 46f0 32be e977 153e 769e 26be
000002a0: 067b 773e 8129 c2be 6af9 37bd 5e07 c23d
000002b0: 548c bdbd d2aa 2f3e 96a2 0cbe 4f85 36be
000002c0: 3dc8 41be aeac adbd da4f b0be 2788 403c
000002d0: 6451 1e3e 4d2d 533e f7c3 9d3e 51f8 85bd
000002e0: ecd0 293e 3069 643e 39b3 713e 40b4 643e
000002f0: ff2e 00be 1433 a2be a4ef 91bd 6240 673e
00000300: ad4a 28bd 195c ea3d cb6b 3bbc 325c 5d3e
00000310: baa9 9fbe 41c6 8cbe 8930 8bbe 445b 563c
00000320: ef7c 60be f982 02be 68c9 50be bbfa 0fbe
00000330: 97de 863e c26f afbe 457c 66be 6769 9f3d
00000340: 9e87 e6bd 7c4d 663c 2993 9d3c 882a 833e
00000350: 9834 bdbe 7d95 51be cd2c 5c3e 3687 b3bd
00000360: 5429 813e 9c9c 1cbc a329 e43c 0c39 9abd
00000370: 70be 8bbe 341f 603e 1275 8abe 12ad 513e
00000380: 6bd8 c1be 4bb9 3abe e815 ed3c 3117 253e
00000390: 2e68 95be acf1 cdbe d191 65be 1d97 023e
000003a0: 7fcb 45be 2b9b 1b3e 7e7f a5bd 4d75 bebe
000003b0: ab4a 55bd 6ec4 7bbe cf09 02be a514 c5bd
000003c0: a25e b03d 6386 cbbd e5ef e5bd e071 593e
000003d0: 7350 90be d5fb 46be 609f 1fbe 1d26 efbd
000003e0: 2470 433d b956 b0bd 5cd1 9fbe 3236 a93e
000003f0: b446 753e b1bd 973d c7c5 d23c 643d 8ebd
-0.11496459 -0.02944391 0.1870323 -0.31158274 0.12896611 0.042855296 -0.011464349 0.14139222
0.16361965 -0.1187735 -0.15514836 -0.12519701 0.10452966 0.018156469 0.046274662 0.14857568
0.097520486 -0.090323344 0.08470243 -0.29436073 -0.032326076 -0.12024492 -0.17147663 -0.019631999
0.14366014 -0.20778856 0.00053770375 -0.2352716 -0.36217725 0.16782393 -0.06809683 -0.39632413
0.1984821 0.10764941 -0.2882981 -0.1957696 0.27423036 -0.014399949 -0.10913323 0.28861257
0.046819918 -0.10505147 -0.16144618 -0.088689715 0.19834456 -0.105139 0.18943848 0.047432132
-0.16666326 0.09282309 -0.15356602 -0.15551782 0.0766233 0.107485496 -0.06510592 -0.37701523
-0.08733291 0.019357368 -0.16652228 -0.0539308 0.09595494 -0.2956508 -0.0449504 0.020811127
0.030394332 0.12886915 -0.17916025 0.08173329 0.006724177 -0.12149391 -0.066355065 0.101876535
-0.17246357 0.17795426 0.23200484 0.19093439 -0.061709706 -0.16210188 -0.011629457 -0.25367805
0.13505359 -0.18146014 0.16906041 -0.03775879 -0.14869262 -0.1359452 0.109892614 0.025303306
-0.16493195 0.08976438 0.3854187 0.058599714 -0.2745212 0.13179319 0.13742153 -0.1330684
-0.26670566 0.12191009 -0.46599838 0.14292727 0.022245064 -0.21437767 0.31950885 -0.095503494
0.021620426 0.18280225 0.1524849 -0.16087662 0.04286029 0.105880775 0.05831726 -0.22478932
0.046923447 -0.0027162773 0.07116775 0.0035168352 -0.19675837 0.043303046 -0.090507574 -0.34990436
-0.1354293 -0.14643098 -0.086520456 -0.0681455 -0.073851794 0.14077103 0.16004705 -0.15569052
-0.18128063 0.42924124 0.13148826 0.057749175 -0.1021264 -0.13626947 -0.019295638 -0.25067928
-0.017253805 -0.008492452 -0.23533218 0.21594231 -0.09556049 0.39637908 0.117658295 0.06365197
-0.2299495 -0.23067144 -0.11055504 -0.18887058 0.11023711 -0.013824487 -0.0058397544 0.26643157
0.21760696 -0.0010611718 -0.34871274 0.302173 0.23161618 0.015744848 -0.22380187 -0.09817161
0.05088492 0.03956857 -0.2794869 -0.23904206 -0.22920874 -0.1747447 0.14596523 -0.16271386
0.24168023 -0.3792229 -0.044915594 0.094740614 -0.09255281 0.17155007 -0.13733897 -0.1782429
-0.18924041 -0.08480202 -0.34435922 0.011751211 0.15460736 0.2062275 0.30813572 -0.06541503
0.16583604 0.22305751 0.23603524 0.22334385 -0.12517928 -0.31679595 -0.07125786 0.22583154
-0.04108684 0.114433475 -0.011439274 0.21617201 -0.3118418 -0.27495006 -0.27185467 0.013083283
-0.21922658 -0.12745275 -0.2038933 -0.1406049 0.26341698 -0.34264952 -0.22508343 0.07783776
-0.11256336 0.01405656 0.01923521 0.25618386 -0.36954188 -0.20467182 0.21501465 -0.08766024
0.25226843 -0.009558823 0.027851885 -0.07530412 -0.2729373 0.21886903 -0.27042443 0.20476177
-0.37860426 -0.18234746 0.02894111 0.16122128 -0.29181045 -0.40223444 -0.22418906 0.12752958
-0.19315909 0.1519591 -0.08080958 -0.37198868 -0.052073162 -0.2458665 -0.12699054 -0.09623078
0.086118 -0.099377416 -0.11227397 0.21234846 -0.28186378 -0.19432004 -0.1558814 -0.116771914
0.047714368 -0.08610291 -0.31214416 0.3304916 0.23952752 0.07409228 0.025729073 -0.06945303

head.2.bias f4 [10]
00000000: 758f aebd 6322 1cbe 9c54 8f3c f454 a93d
00000010: 8ca6 713e 93c8 8d3d a1c7 e4bd 54c4 00be
00000020: bb39 113e 967f ddbd
-0.08523456 -0.15247492 0.0174964 0.08268157 0.23598689 0.06923022 -0.11170889 -0.12574893
0.14182179 -0.10815351
